Face_Classifier/model_v0.pth (torch, 331853 bytes, 10 tensors)

conv1.weight f4 [6, 1, 5, 5]
000000 29 d6 1e 3e 6f c4 97 3e a9 49 93 bd 22 a1 52 3d
       0.15511383 0.29642054 -0.07191784 0.0514232
000010 4f 0e a7 be 30 a4 c6 bd 5c 68 80 be 4d af 51 3e
       -0.32628104 -0.09699285 -0.2507962 0.20477028
000020 20 d0 86 be ef 9c 11 3c 84 5d 16 3e a3 52 7b be
       -0.26330662 0.008887514 0.14684111 -0.24543242
000030 4b c1 d6 bd 6b c7 1e 3d cc 08 55 3e 9f 37 9d 3e
       -0.104860865 0.0387644 0.20804137 0.30706498
000040 7d 3a 23 3e 47 31 07 3e a7 50 65 3e 6b 76 b3 bd
       0.1594028 0.13202392 0.22394048 -0.08762821
000050 65 e4 15 3d 7b 16 e3 3d 7a 2a b4 3e 99 24 50 be
       0.036594767 0.11088272 0.35188657 -0.20326461
000060 30 0d a8 be e9 22 e5 3d 31 f3 31 3e ac 55 e7 bc
       -0.3282256 0.11188299 0.17377926 -0.028239094
000070 aa ac 91 3e 84 44 b1 3d 15 66 87 3e 14 74 09 3e
       0.28452045 0.086556464 0.2644507 0.13423187
000080 39 29 3f bc 8a 66 7e 3e 7f 7f 9e 3e 39 1e 9a 3e
       -0.011667543 0.24843803 0.30956647 0.30101183
000090 00 21 bf 3d e9 f7 09 3e 7b 9d 65 3e 4b 8c 93 3e
       0.09332466 0.13473476 0.22423355 0.28817973
0000a0 c6 c4 78 3d 37 b3 6f 3e f1 6a 34 3e e1 f2 5f 3e
       0.060734533 0.23408209 0.1761892 0.21869995
0000b0 5f b0 08 3e 4b 98 f1 3d f4 2a 87 3d 17 58 8e 3d
       0.1334853 0.11796626 0.065999895 0.069503956
0000c0 f6 73 3e 3e a1 79 6a 3d 6b 10 8f 3b ba 90 a9 3e
       0.18598923 0.0572449 0.004365971 0.3311823
0000d0 0f 31 86 3e 41 7a 2c 3e 47 aa d6 3e e7 7e 6c 3e
       0.26209304 0.16843511 0.41926786 0.23095284
0000e0 17 a8 88 3d 8e aa cc 3e 20 f5 a1 bd 90 07 a3 bc
       0.066726856 0.39973873 -0.07908082 -0.019901067
0000f0 8f db bc 3e 54 2a 0e 3e 92 5c 10 be e3 a0 d3 3d
       0.3688626 0.13883334 -0.14097813 0.10333421
000100 4e 03 c7 3e 1f 4f 8d be d3 4e 23 3d 20 2e 45 3e
       0.3886971 -0.27599427 0.039870095 0.19255877
000110 de 3a 3e be 1a c2 82 3d 28 03 04 bf 12 9d b1 be
       -0.18577144 0.06384678 -0.51567316 -0.34690148
000120 6c 98 30 be d4 c6 fd be df 27 c8 be 05 0e 9a be
       -0.17245644 -0.49565756 -0.3909292 -0.3008882
000130 d8 1b dc 3c 69 e7 b7 3e 34 45 96 bd d2 d6 e2 3e
       0.026868746 0.3591874 -0.07337418 0.4430452
000140 91 ed 10 3d 27 f1 9e be d7 57 d7 be dc 88 ea be
       0.03538281 -0.3104336 -0.42059204 -0.4580754
000150 7d 6a 2e be 1f 95 09 3e 98 9a 70 be 27 6e aa be
       -0.1703281 0.13435791 -0.23496473 -0.33287165
000160 58 5d 3b bd 5a 96 24 be 4b 09 7e 3e 59 bc 02 3f
       -0.045743316 -0.1607298 0.24808232 0.51068646
000170 42 05 ae 3e d7 36 b6 bd 82 ef 47 3c 7a 9b 07 3d
       0.33988386 -0.088971786 0.012203099 0.03310726
000180 f8 20 03 3e 5d df 3b be b1 88 c6 bb ec 62 a9 3e
       0.12805545 -0.18346925 -0.0060587754 0.33083284
000190 61 a5 ac 3d 7f 9b 8e be fa 4a 0d be 97 77 f9 3c
       0.08429981 -0.2785301 -0.13798133 0.030452533
0001a0 b7 57 3e 3e dc 0d 54 3e 6b cd 5d bb 87 be 8b be
       0.18588148 0.20708412 -0.0033844362 -0.27293798
0001b0 fb 10 b4 bb 2f 59 57 be a7 62 3c be 70 31 3a bd
       -0.0054951883 -0.21030115 -0.18397008 -0.045457304
0001c0 2c a9 4b 3e 74 fa c6 3e ba 59 96 3e a6 fc 5a 3e
       0.19888753 0.38862956 0.2936533 0.2138544
0001d0 24 b6 27 3e 2c 77 75 3e 05 6d d4 bd 23 f0 90 bd
       0.16378075 0.23971242 -0.10372356 -0.070770524
0001e0 98 5f 92 3d e7 d6 85 be 1a af 53 be 24 58 82 be
       0.07147139 -0.2614052 -0.20672265 -0.2545787
0001f0 b6 81 e5 3d 6d d0 59 3e e9 b2 9b bd e0 dd 8f 3e
       0.11206381 0.21270914 -0.07602484 0.28098965
000200 a6 eb 82 3e fb 8e 95 3e 9d ac 85 3e fd 2b e8 bc
       0.2557041 0.29210648 0.26108256 -0.028341288
000210 1e 6e 3e 3d e3 67 7c 3e 3e 85 03 3e 49 81 8f 3d
       0.046491735 0.24649005 0.12843797 0.07007081
000220 e1 9d 57 3e e0 05 4f 3e 1e 01 98 3e 5d 40 9e 3e
       0.2105632 0.20217085 0.29688352 0.3090848
000230 cb a3 d3 3c 60 cb 38 3d f8 8f 5d 3e 8f 6c a7 3e
       0.025834939 0.04511583 0.21636951 0.3270001
000240 a0 5c f5 3b 31 e3 82 bd 09 b5 8b 3d 58 58 50 3e
       0.0074878484 -0.063909896 0.06821639 0.203462
000250 a9 20 e9 3d ab 30 96 3e
       0.113831826 0.29334006

conv1.bias f4 [6]
000000 c3 bb 8c bd 76 c8 d1 bc 11 b5 8d bd be 73 ca 3d
       -0.0687175 -0.025608283 -0.06919301 0.09885357
000010 5a b4 81 bd fe 96 00 bf
       -0.063332275 -0.50230396

conv2.weight f4 [16, 6, 5, 5]
000000 06 3c 90 3d c8 b3 3e 3d 3c 80 27 3d 30 7e 0f bd
       0.070426986 0.04655817 0.04089378 -0.03503245
000010 28 3f 27 3d 58 5c 8e 3b d6 28 1f 3d 79 02 bf bd
       0.040831715 0.0043445043 0.038857304 -0.093266435
000020 a5 02 02 bc ca 61 4d bd d0 08 41 3d 48 03 1e 3d
       -0.007935201 -0.050142087 0.047127545 0.038577348
000030 58 6a e9 3c 4f 08 d1 3b 5d 25 07 bd 10 d1 d8 3b
       0.028493091 0.0063791643 -0.032994617 0.006616719
000040 7f ae b8 3d b4 7a 5c bd 44 2c 22 bd 13 35 c5 3b
       0.090176575 -0.053827956 -0.039592996 0.00601829
000050 25 ea 8b bd 5e fe 09 bc 87 ad 21 bd 6b 44 a2 ba
       -0.06831769 -0.008422462 -0.03947213 -0.0012380009
000060 71 94 bf bd ce 7b af bc 2f 1c 69 bb d4 47 93 bc
       -0.09354485 -0.02142134 -0.0035569777 -0.017978586
000070 21 b3 ef bc 79 62 a4 bb 5e b9 ae 3d c4 d4 26 bc
       -0.02926022 -0.0050166217 0.0853145 -0.010182563
000080 02 f6 c2 3d dc 71 d8 3d 82 a3 f1 3d 48 19 4f 3d
       0.095195785 0.10568592 0.11798765 0.05056122
000090 b0 21 b3 bb f0 e2 87 3d 60 fd 4c 3c 43 d2 67 3d
       -0.0054666623 0.06635082 0.012511581 0.056597006
0000a0 70 c4 1e 3e 18 fa e6 3c 36 91 35 3d 30 04 0e be
       0.15504622 0.028195426 0.044327937 -0.13868785
0000b0 0a 33 a5 3c e5 e5 12 3e 58 d2 9b 3d 21 03 b3 bd
       0.020165939 0.1434551 0.07608479 -0.08740831
0000c0 3f 34 bb bd dc cd ef bc cc 7b 44 3b a0 50 db 3c
       -0.091408245 -0.029272966 0.0029981015 0.026771843
0000d0 b5 88 ec bc b8 0f 04 bd fc 32 fc bb bf 54 a1 bd
       -0.02887378 -0.032241553 -0.0076965075 -0.07877492
0000e0 f7 7a b5 bd 1f 84 51 3d 8e b5 66 bd 94 3e 76 bd
       -0.08861344 0.05115139 -0.056325488 -0.060118273
0000f0 86 31 ba 3c 90 b3 d0 3c 4b 85 a4 bd fb 10 58 bd
       0.022728693 0.025476247 -0.08033236 -0.05275057
000100 5f cc 85 3c c2 df f8 3c fb 3b 4e bd f4 8f 40 3c
       0.016332803 0.030380134 -0.05035017 0.011753071
000110 66 61 a2 bd 1d 91 19 bc d4 e2 c2 bd 55 c5 3c 3d
       -0.079287335 -0.009372977 -0.0951592 0.046086628
000120 3d 11 63 bb 5a f8 94 3c fa 07 90 3d 9b aa 9f bc
       -0.0034647726 0.01818483 0.070327714 -0.01949053
000130 50 2c df 3c 08 29 8d 3d f8 7b 62 3d 7a f7 d6 3d
       0.02724281 0.06892592 0.055294007 0.10496421
000140 17 e4 03 3c b3 e3 8a bc f1 a9 97 bb 1b a1 2f 3d
       0.008049986 -0.016954279 -0.004628413 0.04287825
000150 d7 f5 a2 3d 7e 0e bb bc fc c4 00 3d 04 a4 a1 3d
       0.079570465 -0.022834059 0.03143786 0.078926116
000160 94 94 70 bd e2 8a 53 bd 99 a2 49 bd 21 e0 e0 b9
       -0.058735445 -0.05164612 -0.04922733 -0.00042891598
000170 81 3a 3d bd d1 3e 02 bd 91 b6 a7 3c 92 69 08 bd
       -0.04619837 -0.031798188 0.020472797 -0.033303805
000180 89 d6 3f 3c 96 be af bc f4 f5 2b 3d fb d4 a0 bb
       0.011708864 -0.021453183 0.041982606 -0.0049082018
000190 b1 28 d0 bc ed a8 4e bc ad 54 3c bd cd a9 8d bc
       -0.025410028 -0.012613517 -0.04597919 -0.017292881
0001a0 9d 2f 57 3d 46 d6 2f 3d 13 59 bc bb db 04 22 ba
       0.052535642 0.042928956 -0.005747923 -0.0006180533
0001b0 d6 a3 56 3d 28 dd bf 3c 3c 31 a3 bd c0 d8 3d 3d
       0.05240234 0.023420885 -0.07968375 0.046349287
0001c0 26 4f 4f bd 18 35 37 bd a6 95 20 bd 71 c4 64 bd
       -0.05061259 -0.04472837 -0.039205216 -0.055851404
0001d0 ab 96 51 3d f1 74 0a bd 13 09 32 3d 12 cc ff bb
       0.05116908 -0.03380293 0.043465685 -0.0078063095
0001e0 85 07 ab bd cb 47 0a bd 99 29 ad bc a8 66 39 bd
       -0.083510436 -0.033759873 -0.021138 -0.045263916
0001f0 2d 43 5f bd f0 26 39 bd 6b a3 1a bd 0b 88 4b 3c
       -0.054507423 -0.04520315 -0.037753504 0.012422572
000200 4b 2f 52 3d 1b 1e 0e 3d 54 91 86 3a d4 a2 88 bd
       0.051314633 0.03469668 0.00102667 -0.06671682
000210 78 c0 9e 3d 3b 53 67 bd d1 1a 5a 3d ac 3d 4d 3d
       0.07751554 -0.05647586 0.05324823 0.050107643
000220 c7 d8 ba bd f9 06 19 3c 4e e0 45 3d 34 1e f1 3b
       -0.09123378 0.009340041 0.048309617 0.007358337
000230 d1 3b 01 3d 70 a1 6a 3c 93 7b 0e bd 63 ca 45 bd
       0.031551186 0.014320716 -0.03478582 -0.048288714
000240 ec 06 1c 3b d7 8d 3b 3c 30 91 ab 3d 3c d4 0f be
       0.0023807837 0.0114473915 0.08377302 -0.14045805
000250 a1 c8 5b be 97 a2 01 be 2c d4 d8 3c 9f fb a2 3d
       -0.21463253 -0.1265968 0.026468359 0.07958149
000260 3f 1c 24 3d 3c c9 ee 3c a6 8c 46 bd d1 7d c1 3c
       0.040066 0.02914869 -0.048473977 0.023619564
000270 4a 4f 53 3d 32 da e8 3c c1 da 5e bd 9e 7e 4a bd
       0.051589288 0.028424356 -0.05440784 -0.049437158
000280 ee 2f b4 bd 04 20 62 3d 9c b5 cc bc 3d c8 db 3c
       -0.08798204 0.055206314 -0.024988942 0.02682888
000290 dc ac 6d bc 97 5b 5f bc 15 9a 87 3d 49 06 11 bd
       -0.014506545 -0.013632677 0.06621186 -0.035406385
0002a0 35 a9 cc ba fd 43 b5 bc 52 99 7f bb 31 74 53 3d
       -0.0015614392 -0.022127146 -0.0039001298 0.05162448
0002b0 2a 29 f4 bc 44 b6 f8 3b bc 3f d1 3d 5a 3b 08 be
       -0.029804785 0.007590087 0.102172345 -0.13303891
0002c0 75 86 eb bd 94 e5 97 bd b8 ad 68 3d 6d 5b 04 3d
       -0.11500255 -0.074168354 0.056806296 0.032313753
0002d0 58 38 8b bb 39 6f a6 bd e3 71 89 3d 18 50 ec 3d
       -0.00424866 -0.08126683 0.06711175 0.11538714
0002e0 92 71 89 3c 3c 9b b0 bc 6c c6 c2 bd 21 6b 3a 3d
       0.016777787 -0.021558397 -0.09510502 0.045512322
0002f0 18 ce 49 bc 20 09 8f 3c 0a 0e 99 3d d9 93 52 3d
       -0.012317203 0.017460406 0.07473381 0.05141053
000300 bf fc 0f 3e cd 82 a2 3d 64 67 0b 3d e1 98 12 3d
       0.14061259 0.079351045 0.034034148 0.035790328
000310 8c c6 bd 3b 20 ef 02 3e 92 25 ab 3d 05 44 48 3d
       0.005791491 0.12786531 0.08356775 0.048892993
000320 64 b4 0d bd 67 6a 94 bd 51 4a ee bd b9 d1 d0 bd
       -0.034595862 -0.07246857 -0.116352685 -0.101962514
000330 ef dd 3e bd b5 38 3d bd f9 d5 b1 bd f7 e2 0b be
       -0.04659837 -0.04619666 -0.0868339 -0.13660799
000340 84 a8 47 bd 84 4d 05 bd 0c 48 16 be e1 82 f5 bd
       -0.048744693 -0.032544628 -0.14675921 -0.11987854
000350 35 cb 35 3c 86 29 d3 3c 59 da bf bd b5 2f ae bd
       0.011095812 0.025776636 -0.093678184 -0.08505193
000360 43 be 4d bd 13 d7 91 3d 1c 38 91 3c cf 30 32 bd
       -0.050230276 0.071211 0.01772695 -0.04350358
000370 f3 fb 99 3d 3c ed 35 3d e3 09 87 39 1a ad 03 3c
       0.075187586 0.044415697 0.00025756573 0.008036876
000380 2c e5 0d bd bc 76 9b 3d 17 b2 82 3d 19 1c a7 3d
       -0.034642383 0.07591006 0.06381624 0.08159656
000390 e6 95 d7 3d 8f 0a d4 3c 6e 36 c1 3c 75 a4 57 3d
       0.10526638 0.025883941 0.023585524 0.052647073
0003a0 8d db 92 bd c2 1d f4 37 b8 8c 81 bd d9 98 6d bc
       -0.07170782 2.9100924e-05 -0.06325668 -0.014501774
0003b0 84 41 33 3c ef d3 85 bd 94 a4 f2 bc e3 8c a2 bd
       0.010940913 -0.06534564 -0.029619493 -0.07937028
0003c0 e0 21 5d bc c3 4c 9b bd 11 a2 71 ba 3e 1f 87 bc
       -0.013496846 -0.075830005 -0.000921757 -0.01649439
0003d0 a2 2c 49 bd 82 d5 39 bd 9b 08 81 3c 16 a8 a7 bc
       -0.04911483 -0.045369633 0.015751174 -0.020465892
0003e0 1b 27 3b bd fd e1 0f bd db a6 bb bc ed 45 52 3d
       -0.04569159 -0.03512763 -0.022906711 0.051336218
0003f0 51 a9 7c bc 99 97 5d bd 57 b4 c8 bc 5e 71 49 3c
       -0.015421228 -0.054099653 -0.024500055 0.012295095

conv2.bias f4 [16]
000000 b5 35 1a 3e 00 d6 ea bc 45 15 bd bd 2d 5f 21 3d
       0.1505955 -0.028666496 -0.092325725 0.039397407
000010 59 22 25 3e 59 9f 8e bd 0f 16 0c 3e dc 96 d5 3d
       0.16126384 -0.06963987 0.1368029 0.10429165
000020 eb 05 ff bc 57 80 44 be 93 1d 89 3d fb f4 cc 3d
       -0.031130752 -0.19189583 0.06695094 0.10007664
000030 4e f1 fb 3c 42 0b 80 bd 06 78 5c bd e6 c1 82 3d
       0.030754711 -0.06252147 -0.0538254 0.063846394

fc1.weight f4 [120, 576]
000000 7b d7 39 3c 04 a3 fc 3c 42 57 b2 3c b8 d8 95 3c
       0.011342878 0.03083945 0.021770123 0.018291816
000010 62 31 a2 3b 32 7e d9 bc 6f cc 1c 3d 2b dc 8d 39
       0.0049497345 -0.026549432 0.0382809 0.00027057654
000020 5b c4 dc 3c b5 a8 5c 3d 28 73 15 3b 38 00 32 bb
       0.026949098 0.05387183 0.0022804234 -0.0027160775
000030 bf d8 0f 3d e2 ed 2a 3d 85 0d 61 bb 59 a2 4c 3d
       0.035118815 0.04173077 -0.0034340334 0.049959514
000040 74 4e 1f bc 01 f9 a4 bc 9e 56 39 3d 80 37 33 3c
       -0.0097232945 -0.020138266 0.04524862 0.010938525
000050 d6 0d a1 ba 66 7c d0 3b 98 c0 13 3d b6 6e e9 bc
       -0.0012287449 0.0063624857 0.036072344 -0.028495174
000060 9d 35 60 3c 4f 3e e4 3b 13 33 09 bd 28 f2 8a bc
       0.013684657 0.0069654356 -0.033495974 -0.016961172
000070 fb 33 10 3d 65 80 f2 bc 28 d2 46 3d b0 d3 4e 3d
       0.035205822 -0.029602239 0.048540264 0.05049485
000080 19 b0 9c 3c 5a 7b 29 3c fd 93 86 3c 21 87 d3 bc
       0.019126939 0.010344351 0.016427988 -0.02582127
000090 80 4d c5 3c 68 2a 04 3d 2a b4 77 3c f1 f9 d9 3b
       0.024084806 0.032267004 0.015118638 0.00665211
0000a0 a9 73 9d bd 5b c5 23 bd a0 4a 4d bb 9c cd 1a 3d
       -0.07688076 -0.039983135 -0.0031324998 0.03779374
0000b0 3c c0 b8 3c 65 ae 43 ba 61 4b f9 3c bf 73 08 3c
       0.022552602 -0.00074646465 0.030431451 0.008328377
0000c0 67 51 0c bc 32 d1 45 bd a0 bc c9 3c a2 d8 fa 3a
       -0.00856433 -0.048295207 0.024626076 0.0019138048
0000d0 da 97 af bc 6a 2e 57 3c 9a 4e cd bc d0 c8 c7 bc
       -0.021434713 0.013133625 -0.025061894 -0.024387747
0000e0 e1 51 11 3d 47 7a 18 bd d5 ca 06 3d 37 a8 36 bd
       0.035478476 -0.037225988 0.03290828 -0.044594016
0000f0 5e 04 e4 3a 2c 7c c4 3b 69 70 13 3d 47 22 d7 3c
       0.0017396321 0.0059962478 0.035995875 0.026261462
000100 4f 39 72 bd 59 84 24 bd af ad 24 bd 77 2e e5 3c
       -0.059136685 -0.04016528 -0.0402047 0.027976258
000110 4f fc 00 3d 8c 7c c0 3c 88 94 c7 bb 8a 37 00 3d
       0.03149062 0.023496889 -0.0060907044 0.031302966
000120 44 80 cc bd a8 01 47 bd f9 b5 cb 3d f5 72 ce 3d
       -0.09985402 -0.048585564 0.09946818 0.1008052
000130 1f 41 82 3d 8d a7 f6 bc ba 84 1e bc af 9a 23 bc
       0.06360077 -0.030109191 -0.009675199 -0.00998561
000140 2a cc 81 3d 94 d8 83 3d 9a d7 13 bd b1 26 86 bd
       0.06337769 0.064377934 -0.036094286 -0.065503486
000150 9e 34 a7 bc 59 58 f3 bb fe 70 45 3d 67 b3 5a 3c
       -0.020410832 -0.0074263033 0.04820346 0.013348437
000160 a5 c0 75 3d 2b 12 d3 bc 6c ed 11 bd a8 7f a8 bc
       0.059998173 -0.0257655 -0.035626814 -0.020568684
000170 ee bf 46 3b e7 5a 25 bd 44 3d 79 bc 77 2c 3e bd
       0.0030326801 -0.040369894 -0.015212361 -0.046429124
000180 09 e4 1e bd 77 55 16 3c 22 52 a9 bc df a9 29 3c
       -0.03879169 0.00917565 -0.020669047 0.010355442
000190 e0 40 6d 3d d1 94 cf 3c 20 93 fa bc cd 02 14 3c
       0.057923198 0.025339516 -0.030587733 0.009033871
0001a0 4f e1 b0 bb 7d 8a 1d bd 07 0c c0 bc 16 11 14 bd
       -0.0053979526 -0.03846215 -0.023443235 -0.036149107
0001b0 b6 57 37 3c 49 57 d1 3c af 91 00 bc de fa f5 3b
       0.0111903455 0.025554316 -0.007847234 0.0075067123
0001c0 4b b6 ce bc 6e 64 04 bd 26 86 0c ba 06 23 19 bc
       -0.025233408 -0.03232234 -0.0005360566 -0.009346729
0001d0 83 46 6f bc 23 c1 a4 3c 4b 92 a9 3a 8a 83 d1 bc
       -0.014604214 0.020111626 0.0012937275 -0.025575418
0001e0 ff f2 53 3c 22 d8 d7 bc ae 19 48 3c 48 cf e0 3c
       0.012936353 -0.026348177 0.012213154 0.02744259
0001f0 67 ae 4e bc c0 08 65 3c 39 b9 3d 3d a6 5b 0b bd
       -0.012614823 0.013979137 0.04631922 -0.03402295
000200 29 fa 0b 3d 08 cd 15 3b b9 1d 00 3d 15 bc 87 bc
       0.03417412 0.0022857804 0.031278346 -0.016569177
000210 28 26 97 bc 9b 22 78 bc 40 dd 28 3d 2f 7c 16 3d
       -0.018450812 -0.015144969 0.041226625 0.036739524
000220 af 0d 0c 3c ec 42 23 bd b0 25 c0 3c 92 2c 59 bc
       0.008548184 -0.039858744 0.02345547 -0.013255255
000230 a7 7c a3 bc 8c b5 5f bc 3a 4e b5 bb 56 1b 04 bc
       -0.0199569 -0.013654124 -0.005533007 -0.008063158
000240 57 af 63 3d 5d b2 ed bc e7 20 ed 3c b0 97 02 3d
       0.05558714 -0.029015714 0.028946353 0.03188294
000250 cb 96 09 bd 3f df 39 bd 59 ae 3f 3d 6e e4 69 bc
       -0.033591073 -0.04537892 0.04679713 -0.014275653
000260 f2 70 52 bd 59 58 3d 3d e4 3c 15 bd 11 ed ca bd
       -0.051377244 0.046226833 -0.036435023 -0.09908498
000270 63 69 ce 3d e6 5b 2d bb f5 50 b2 bc d0 76 d3 3c
       0.10078695 -0.002645248 -0.021767119 0.02581349
000280 c9 19 0f 3d 93 7f ac bd 2e 24 c1 3a 97 b2 9e bc
       0.0349367 -0.0842277 0.0014735514 -0.019372268
000290 b6 d4 08 bb 5b fe 17 bd ad fa 98 3d 7c 72 b0 bc
       -0.0020878739 -0.037107807 0.074696876 -0.021538965
0002a0 50 fe 09 3d db de 55 3c 37 7c f1 3c f7 13 b3 bc
       0.033689797 0.013053621 0.029478176 -0.021860106
0002b0 84 82 95 3c 86 22 27 bc 25 d0 90 3d 7a 45 c8 3b
       0.018250711 -0.010201102 0.070709504 0.006111798
0002c0 07 95 79 bc 97 f5 1c bd b6 4f 68 bd 12 96 24 bc
       -0.015233285 -0.03832015 -0.056716643 -0.010045545
0002d0 e2 e6 9d 3c ac 65 ca bc a9 bc 02 3d 37 c4 fb 38
       0.019275133 -0.024706684 0.0319182 0.000120051605
0002e0 93 93 bc bd 89 3e 9f bd e9 d7 1a 3c f2 a0 83 b9
       -0.09207835 -0.077755995 0.009450891 -0.0002510618
0002f0 16 69 a9 3c 50 2d 86 3c d4 ed 43 b9 a6 ae 1f bd
       0.020679992 0.016379029 -0.00018685247 -0.038984917
000300 6a 40 67 3b 9c d0 26 3d b3 8c da bb 7d 96 df 3c
       0.0035286197 0.04072629 -0.0066696047 0.027293438
000310 6d 32 61 3d b5 ae 92 3c 45 ea 75 3b c7 81 7b 3c
       0.05497973 0.017905572 0.0037523669 0.015350766
000320 8f 37 cb 3c 25 bf c8 3b e7 65 b4 3c d4 84 8e bc
       0.024806766 0.006126302 0.022021247 -0.017397322
000330 a2 a1 0c 3d 65 6f 9d 3c ac ae a1 bc 97 25 02 bd
       0.034333833 0.019218156 -0.01973661 -0.03177413
000340 6c 04 8d bd 56 c2 44 3c 9a 31 cd 3c 08 54 4a 3d
       -0.06885609 0.012009224 0.025048066 0.049396545
000350 02 47 13 bd dd bc ff bc 33 07 0b 3d ee 7f e1 3c
       -0.03595639 -0.031217987 0.033942413 0.027526822
000360 d3 68 81 bd 9f 57 80 3c 16 e3 2d bc 05 68 5d 3d
       -0.06318822 0.015666781 -0.010613224 0.05405428
000370 db 56 57 3d f4 6a 30 3d 64 a4 60 bd 21 b4 07 3d
       0.052573066 0.04307075 -0.054844275 0.03313077
000380 18 55 03 bd ce 86 2e bd 05 9c 98 3b fc f2 a5 b9
       -0.032063574 -0.04260903 0.004657271 -0.0003165229
000390 1c 59 c2 3a 4f 1d 34 3d f0 81 43 3d 9c 7c d9 bb
       0.0014827582 0.043973263 0.04773134 -0.006637169
0003a0 20 6d 41 bd 71 0a c3 3c c1 ce 19 bc 8f c4 6c 3c
       -0.04722321 0.02380869 -0.009387673 0.01445116
0003b0 0d 07 be 3b d9 7d 09 3b 6d eb b9 bc 99 b7 f3 3c
       0.0057991804 0.0020979552 -0.022695268 0.029750632
0003c0 54 56 18 bd df 23 40 3c 32 59 b0 bc f2 e9 e4 bb
       -0.037191704 0.011727302 -0.021526907 -0.0069858963
0003d0 dd 0d 22 3c 2e 7c 6e 3c 97 48 ad bc c7 e4 18 bc
       0.009891001 0.014555974 -0.021152778 -0.0093318885
0003e0 03 37 6d 3c f3 cc 58 3c 74 3d fd 3c 64 7e 80 3c
       0.014478448 0.013232457 0.030913092 0.015685268
0003f0 8e 46 9a 3d 7e 9e 76 3b dc cf ce bc 29 49 bc bc
       0.075329885 0.003763109 -0.0252456 -0.022984104

fc1.bias f4 [120]
000000 fb 53 fc 3b 02 2d df bc 36 b9 31 3d ec 48 b6 3c
       0.007700441 -0.027243141 0.04338952 0.022251569
000010 70 a5 32 bd dd 03 e3 ba 74 20 31 3b da 2f 02 3d
       -0.043614805 -0.0017319877 0.00270274 0.031783916
000020 e7 8d 20 bb a9 b8 85 3c 7e bd be bc ca cd 20 3d
       -0.0024498643 0.016323404 -0.023283716 0.039258756
000030 04 db 49 bb 53 10 8c 3d a7 7f 2e 3b ff 09 97 bc
       -0.003080071 0.06839051 0.002662638 -0.018437384
000040 da 12 be 3b aa 2c ca bc 51 5e 28 bd 88 20 62 bc
       0.005800587 -0.0246795 -0.041105572 -0.013801701
000050 31 b9 fb 3c c0 8d 20 3b 55 ea 35 bc 9b 20 58 3c
       0.030727955 0.0024498552 -0.011103232 0.0131913675
000060 be 28 de bc 57 5a 74 3c e7 af 56 3c f8 3f a6 3c
       -0.027119037 0.014914117 0.013103462 0.020294175
000070 df 23 01 3c 87 3e 91 bc 98 41 bb 3c 9b 2b b0 3c
       0.0078820875 -0.01773001 0.022858426 0.021505168
000080 55 94 17 3c bf b4 a9 bc 0a c7 22 bd 1f e0 e3 3c
       0.009251674 -0.02071607 -0.0397406 0.02781683
000090 d9 f4 3a 3b 28 79 ea 38 9a 66 85 bc da 96 48 3d
       0.0028527288 0.000111805566 -0.016284276 0.04897199
0000a0 1c c2 a9 bc 39 07 ed 3b 7d 79 6a 3b 2f 05 ca bc
       -0.020722441 0.007233527 0.003577798 -0.024660675
0000b0 94 a7 26 bd b7 21 be 3c 83 30 6f 3d 90 26 66 bc
       -0.04068716 0.023209436 0.058395874 -0.01404728
0000c0 ff 95 b2 3c e6 98 ea 3d 67 33 24 bd 9d 7a b5 bb
       0.02180004 0.11454944 -0.040088084 -0.0055382983
0000d0 3a a8 8d 3d 30 82 8b 3d cf 01 67 bd f0 e5 01 bd
       0.06916852 0.06811941 -0.05639821 -0.031713426
0000e0 52 c6 72 3c 63 21 55 3c d6 8c 46 3d 50 d2 47 3d
       0.014817791 0.013008448 0.048474155 0.048784554
0000f0 6a cc f4 bc 52 fd 1f 3d 36 bc 9e 3a 17 bb fd bc
       -0.029882628 0.039059944 0.0012110535 -0.030973
000100 3a 9a 02 bd b1 97 16 bd 5b 46 58 3d f2 8d 5e 3d
       -0.031885363 -0.036765758 0.05280147 0.05433459
000110 b3 13 d7 bb 75 aa f0 bc 6d 5e 01 bc f4 7c d1 bc
       -0.0065636276 -0.029378155 -0.007896048 -0.025572278
000120 d2 7b b7 bb 7e b4 0b 3d 29 1c 62 3c 44 47 d6 3c
       -0.0055994773 0.034107678 0.013800659 0.026157029
000130 11 0b a1 3c 95 bd c0 bc 66 48 51 bc e5 11 e9 3c
       0.019658597 -0.0235279 -0.012773609 0.028450916
000140 4c cc 93 bd 44 fb 1e bc 7b 1e 10 bd fe 3f 8b bc
       -0.07216701 -0.009703461 -0.03518532 -0.016998287
000150 ad 24 d7 bc ea b1 66 bb 68 bc 01 bd 86 1f 61 3d
       -0.026262606 -0.003520126 -0.03167382 0.054961704
000160 23 e4 95 3d 25 46 86 3b e2 de 3e 3c d9 05 df 3c
       0.07318904 0.0040977173 0.011649819 0.027224468
000170 06 11 1c 3d 7d c4 12 3d 82 3a 1f 3c 2e 7f 5d bb
       0.038102172 0.035831917 0.009718539 -0.0033797729
000180 a8 1e f0 bc b3 33 5f 3d 73 e0 da 3c fb 21 22 3d
       -0.029311493 0.054492664 0.026718354 0.039583188
000190 13 1c 7e 3d 68 40 17 3d ff 2b ba 3c a9 46 d9 3c
       0.062038492 0.036926657 0.022726057 0.026522951
0001a0 11 49 68 3b 86 26 a2 3c 7d 5d 8d bc bf 4c 14 3d
       0.0035443942 0.01979376 -0.017256493 0.036206003
0001b0 eb 1c 96 3d 21 20 36 3c 64 67 34 bd 63 be 79 bc
       0.073297344 0.011116059 -0.044043913 -0.015243146
0001c0 4a 37 d0 bc a8 06 8e bc cf 83 d7 ba ee d0 7d 3a
       -0.025416989 -0.017337158 -0.001644248 0.0009682317
0001d0 17 e0 15 bd e8 92 13 3d c8 50 0a bc 78 0d eb bb
       -0.03659066 0.036028773 -0.008442111 -0.0071732365

fc2.weight f4 [84, 120]
000000 01 fa 03 3d 57 74 14 bd 49 3f bb bb 19 60 79 3d
       0.032220844 -0.036243763 -0.0057143313 0.06088266
000010 f3 de b9 39 85 83 95 3d 60 57 73 bd cc c1 69 bb
       0.0003545206 0.07300476 -0.0594095 -0.003566849
000020 71 ae 80 3b e1 5e cb bc 42 ab 0d 3b d1 86 6f bd
       0.003927045 -0.024825515 0.002161697 -0.05847818
000030 47 8e f7 3b ce 12 42 3d b1 ec 9f 3d 15 c4 70 3d
       0.0075548026 0.047381215 0.07808817 0.05878075
000040 5f 49 7f 3d e4 0c a1 bd 46 67 5d 3c 27 a9 6f bd
       0.06232583 -0.07863787 0.013513392 -0.058510926
000050 f7 95 2c bd da f7 20 3d b7 b6 15 3d d2 d0 86 bd
       -0.042135205 0.03929887 0.036551204 -0.06582798
000060 82 dc 62 3d c4 59 9c bd 13 7a 84 bd 80 f0 9d bc
       0.055386074 -0.07634309 -0.06468596 -0.019279718
000070 68 12 67 bd 61 5d 7d bd cd 70 84 bd 6d 14 1a 3d
       -0.056414038 -0.06185663 -0.064668275 0.037617136
000080 63 37 eb bc 31 47 9e 3d 55 62 5e bd 1d 59 aa 3d
       -0.028712934 0.077284224 -0.054292995 0.08317778
000090 d0 26 84 3d 55 42 1e 3d 5f 19 17 bd 43 da 63 3d
       0.064527154 0.038637478 -0.03688943 0.055628072
0000a0 d6 0b d5 bb 11 6a 98 3c 67 cb aa bd ca dd 00 3d
       -0.006501655 0.018605264 -0.08339577 0.031461515
0000b0 08 7b f4 3a 19 06 2d 3d 6c 2d aa bd a8 ee 59 3d
       0.0018652389 0.042242143 -0.08309445 0.053206116
0000c0 0c 99 92 3d ac a5 53 bd 6c 97 98 3d d1 cb 06 3d
       0.071580976 -0.05167167 0.074507564 0.03290922
0000d0 2a 31 0b bc 65 bb 2a bd 1f 96 aa 3d 71 7e bf bc
       -0.008495608 -0.04168262 0.083294146 -0.023375722
0000e0 e4 44 02 bc 31 b8 e0 bc cc f6 97 3c 42 52 ad bc
       -0.007950995 -0.02743158 0.0185503 -0.021157388
0000f0 57 89 9b ba 19 84 3d 3c 8f 1e 9c 3d c3 a2 a7 3d
       -0.0011866492 0.011567139 0.07623016 0.08185341
000100 60 06 5b bd 30 b2 94 bd 76 db 98 3d 82 f4 47 bc
       -0.053472877 -0.07260549 0.07463734 -0.012204291
000110 61 ce 94 3d fb e1 58 3b d8 77 11 3d 2f ef 51 bd
       0.07265926 0.003309368 0.035514683 -0.051253494
000120 7e ef 05 3d f4 e6 dd bc 5a 58 88 3c 89 2c 9c 3c
       0.0326991 -0.027087666 0.016643692 0.019064205
000130 79 29 75 3d 7c 4e 63 bc a1 dd e4 bc 1a f4 ab 3d
       0.059854005 -0.013873693 -0.027937712 0.08396168
000140 c5 99 0a 3d 36 73 2b 3c 1b 4f ad 3d 55 7b 15 3d
       0.033838052 0.01046448 0.08462354 0.03649457
000150 19 88 8c 3d 84 88 29 39 9f ea 82 bc 9c ee 0b 3b
       0.06861896 0.00016167952 -0.015981017 0.002135194
000160 12 f2 a4 bd 86 fa ad 3d 4d 12 4c bd 81 a4 86 bc
       -0.08053984 0.08495049 -0.04982214 -0.016435863
000170 5b 92 b9 bc 66 45 9f 3d 36 29 b4 bc 42 64 6c 3d
       -0.022652796 0.077769086 -0.021992307 0.0577128
000180 e4 fc a6 3d b1 d1 0a 3d 3c 34 d4 bc ab 8a a3 bd
       0.08153704 0.033891384 -0.025903814 -0.07985433
000190 6f 6e d9 3c c9 4f 24 bc e1 ca 24 bd 95 59 b5 3d
       0.026541917 -0.010028788 -0.040232543 0.08854977
0001a0 4c 69 12 bd 82 b0 de bc 97 c1 2d 3d cf 92 44 3d
       -0.03574495 -0.027183775 0.04242095 0.04799157
0001b0 0a 78 bb bd ff 68 f6 3c f6 fc ac 3d 26 9c 25 bd
       -0.09153755 0.030079363 0.08446686 -0.040432118
0001c0 78 2e 65 3d 44 84 e0 b9 65 8f 10 bd 94 88 3d bd
       0.05595252 -0.00042823155 -0.035293 -0.04627283
0001d0 ed ec 38 bc 0a 57 64 bd 9f f0 ee 3c 09 f7 b8 3a
       -0.011286956 -0.05574707 0.029167471 0.0014111708
0001e0 71 7c 8f bd b2 f5 1b bc 24 95 31 bd 8e ea b1 3d
       -0.07006157 -0.009519028 -0.043355122 0.08687316
0001f0 06 62 b7 ba 34 a0 97 bd cf a8 a9 38 83 08 1e bd
       -0.0013991005 -0.07403603 8.089991e-05 -0.038582336
000200 6e e6 a6 3d 1c b1 51 bd 74 24 fe ba a7 ef 33 bd
       0.0814942 -0.051194295 -0.0019389526 -0.043929722
000210 b3 46 b3 bd cc 84 8b 3d 9a 78 69 bb 35 70 61 3c
       -0.08753719 0.06812438 -0.0035624863 0.013759662
000220 f3 29 9a bd 5f 27 a8 3c d3 f1 6e bd 82 d9 7b bb
       -0.075275324 0.020526586 -0.05833609 -0.0038429205
000230 32 78 b5 3d 5d 6d 93 bd e8 69 7f bd ff 35 bd 3d
       0.08860816 -0.07198594 -0.06235686 0.092388146
000240 be fb 7c ba d6 76 97 bd b0 0b 87 bd 72 41 a6 bd
       -0.00096505496 -0.07395713 -0.06594026 -0.081179515
000250 53 ed e5 3c 96 11 ee 3c 6f 2f 4b 3d 3a 84 82 3c
       0.028067267 0.02906112 0.049605783 0.015932191
000260 f7 f9 33 bd 4c ad 02 3c d9 6f b8 3c 4e 64 ad bd
       -0.043939557 0.0079758875 0.02251427 -0.08466397
000270 d0 3c 7f bd 4c aa d6 3c 1e 60 a2 3d 60 e2 83 3d
       -0.062313855 0.02620425 0.07928489 0.06439662
000280 11 f6 37 bd 3d 56 15 bc 26 19 6b 3d e5 c4 a9 bd
       -0.0449124 -0.009114799 0.05739703 -0.08289508
000290 48 f6 a0 3d 88 a3 09 3a 29 72 61 bb c0 65 44 3c
       0.078594744 0.00052505033 -0.003440032 0.01198715
0002a0 35 6b 90 bd d3 40 b2 bd fc b1 af bd ed db 7c bc
       -0.07051698 -0.087037705 -0.0857887 -0.015433294
0002b0 e6 00 72 bd 95 53 ed bc e0 4f 82 3d c3 ad 20 3d
       -0.059082888 -0.02897052 0.06362891 0.039228212
0002c0 cc 73 d2 bb df d1 13 3d a3 cb 4e 3c 71 ab 87 bd
       -0.0064224955 0.03608882 0.012621793 -0.06624497
0002d0 1d b7 1f bc 8c 7f 6f bd 32 0c 98 3d db 46 ba 3d
       -0.009748247 -0.058471248 0.07424201 0.09095546
0002e0 d0 23 a2 bd 50 cf 6c bd af 54 62 3d 8c d5 bd bd
       -0.07916987 -0.057814896 0.05525654 -0.092692465
0002f0 9d 31 be 3d 8a 62 43 3d eb d0 6b 3d 91 0d fa bb
       0.09286807 0.047701396 0.057572287 -0.007631012
000300 85 29 82 3d eb 85 18 3d 7e d1 75 3d c3 12 22 bd
       0.063555755 0.03723709 0.06001424 -0.039568674
000310 b8 00 a4 bc 53 6f 16 3d 73 55 ae 3d 9d 3b b3 3d
       -0.020019874 0.03672726 0.08512392 0.08751605
000320 fd e8 83 3d 75 da e9 bc e5 4b 79 bd fe 94 1a bc
       0.06440923 -0.028546551 -0.060863394 -0.009434937
000330 1d 66 ae bd ca d4 6d 3d d5 a1 c0 3d b1 34 8d 3c
       -0.0851557 0.05806426 0.09405867 0.01723704
000340 8e 71 7a bd d1 77 a7 ba 6d 7c 79 bc 55 cd ad 3d
       -0.06114345 -0.0012776797 -0.015227419 0.084864296
000350 bd 80 15 bd e8 cf 31 3c 16 8c 14 3d ec e7 81 3c
       -0.036499728 0.010852791 0.03626641 0.01585766
000360 96 bc 8f 3d a8 39 5f bd c5 d9 bd 3d 1b 95 a4 bd
       0.07018392 -0.054498345 0.09270052 -0.08036252
000370 f3 cd 93 bd 63 48 b9 3d c8 a8 c3 3d 8b 57 99 bc
       -0.07217016 0.0904701 0.09553677 -0.018718502
000380 d3 dc 94 bd 2e a9 8b bc 39 38 02 bd f3 1d 66 bc
       -0.072686814 -0.017048445 -0.0317919 -0.014045226
000390 36 fa c0 3c 1f 53 a7 3c 62 26 9c bd 0d 80 ec 3b
       0.02355681 0.020425377 -0.076245084 0.0072174133
0003a0 90 b3 90 3d ab 30 76 3d cc 62 b6 bd 05 0f b1 3d
       0.07065499 0.060105007 -0.08905563 0.08645443
0003b0 36 24 8f bd 9c 2b 6a 3d 5f 2c 9f bd c9 2d ea 3c
       -0.069893286 0.057170495 -0.07772135 0.028586285
0003c0 3c 97 08 bd 6a a5 9e bc ad 31 c1 3c 55 b5 3d 3d
       -0.033347353 -0.019365985 0.023583258 0.04631551
0003d0 a6 ec d0 bc 44 68 68 bd f4 1a 9e bb c8 99 56 bd
       -0.025503468 -0.05674006 -0.0048249904 -0.05239275
0003e0 af 59 b6 3d 7b a2 7e 3d a2 b4 82 3d c0 a1 8d bb
       0.089038245 0.062166672 0.06382109 -0.0043222606
0003f0 a2 1f 3e bd d8 78 92 bd f8 a2 09 bd eb 76 96 bd
       -0.046416886 -0.07151955 -0.033602685 -0.073469006

fc2.bias f4 [84]
000000 3d e2 13 3c 76 5a 49 bd ee f9 f5 bc a3 30 0b 3d
       0.009026107 -0.049158536 -0.030026402 0.03398193
000010 c2 83 93 bd b3 ed 06 bd 35 d6 aa 3d 01 99 b5 3c
       -0.07202865 -0.03294153 0.08341638 0.022167685
000020 bd 94 8c bd a4 de 22 3b d2 80 1a 3e 66 a6 67 3b
       -0.06864307 0.0024851942 0.15088204 0.0035346984
000030 fa ba a2 bd b5 8a 0b bd 4e cb 32 3e 6a 66 76 3d
       -0.07945819 -0.03406783 0.17460367 0.060156263
000040 3a 8c 12 3d 7d e5 ed bb 66 b8 bf bd 08 0d 2b 3d
       0.03577826 -0.007260023 -0.09361343 0.041760474
000050 3b 06 40 3d cb f3 8a bc ea f4 b2 bd 29 a7 36 bd
       0.04688094 -0.016961953 -0.0873812 -0.04459301
000060 3e 89 80 3d 2b 48 03 3d e2 10 ef bc 0e be a7 bd
       0.06276177 0.032051247 -0.029182855 -0.08190547
000070 00 e7 04 3e ef f3 84 bc 66 cd f8 bd 1c ce 3d bd
       0.12978745 -0.016229598 -0.12148552 -0.04633914
000080 f5 93 5a bd 3d 26 35 bc db 7d 8a 3d a7 e9 48 3d
       -0.05336376 -0.01105648 0.06762286 0.049050953
000090 8b 17 b1 bd 8d 31 d0 bc 55 5c 37 3d a7 a8 51 bc
       -0.086470686 -0.025414253 0.04476579 -0.0127965575
0000a0 d2 58 e3 3d 6b fb a5 3d 3f ca b8 bd fe 5e a3 3d
       0.111009255 0.08104595 -0.090229504 0.07977103
0000b0 46 50 ea 3d d9 fe c1 3d fa 15 9e 3c 20 7a 9f bc
       0.11441092 0.094724365 0.019297589 -0.019467413
0000c0 8c 1a e0 3d b3 a7 6e bc 5c d1 a9 bc 7b 17 26 bc
       0.109425634 -0.01456635 -0.020729713 -0.010137434
0000d0 c1 f4 da 3c 83 71 1e bd a6 5a c2 3c de 04 4c 3d
       0.026728036 -0.038682472 0.023724865 0.04980933
0000e0 63 77 c9 3d 0a ea 94 bc 85 9e 9d bd 20 40 44 3d
       0.09837224 -0.018178005 -0.07696251 0.047912717
0000f0 67 f7 28 bd d2 bb 42 3d ab ab 1a bd f8 e4 c3 bc
       -0.041251566 0.0475424 -0.03776137 -0.023912892
000100 0f ad 8d bd b1 e6 c3 3d 3d 23 00 3d 5e d5 71 bd
       -0.06917774 0.09565485 0.031283606 -0.059041373
000110 1f b0 91 3c d7 53 87 3d 98 31 7a 3d 28 d7 0a 3d
       0.017784176 0.06607788 0.061082453 0.033896595
000120 db ca a6 bd 0f 2a d8 3d d2 37 01 3d 5a 3e 5e bd
       -0.0814416 0.10554897 0.031547375 -0.05425868
000130 fb 3d 43 3d 52 7e 36 bd b6 22 ce 3c 8c f8 60 bd
       0.04766653 -0.044554062 0.025163036 -0.054924533
000140 34 53 74 3c 17 52 a1 bd 32 03 a1 bd 2f 32 23 bd
       0.014912415 -0.078769855 -0.078619376 -0.03984278

fc3.weight f4 [2, 84]
000000 0f 22 4e bd f3 5e 06 3e f5 8b bb 3d 4d a8 88 3d
       -0.05032545 0.13122158 0.09157554 0.06672726
000010 15 0f d2 bd 63 81 fe be 68 dd 33 bc 06 52 7d 3d
       -0.10256783 -0.4970809 -0.01097808 0.0618458
000020 c2 8d 0a 3b 71 6e a1 3d 71 dd e3 3e c9 e4 8c 3d
       0.0021141623 0.07882393 0.44504884 0.06879575
000030 42 3e 3c bd df f3 bd 3d 26 5c ae 3e 8d 4c 0f be
       -0.04595781 0.0927503 0.3405468 -0.13994046
000040 d9 21 47 3d 45 1a 01 bd 62 0d 0d bc 2e c4 ff 3e
       0.048616264 -0.031519193 -0.008609148 0.4995436
000050 cc 62 c4 bb ac a5 ad bd b4 fb ba bd 1d 2d 92 bc
       -0.005993223 -0.08478865 -0.0913004 -0.017843777
000060 05 33 c5 3c 28 4b 28 be 2c 63 e5 bd 48 b1 40 be
       0.02407218 -0.1643492 -0.11200556 -0.18817627
000070 29 3e 94 3e dd 62 9d 3d 98 5c 90 3d 44 d5 2e 3e
       0.28953674 0.07684872 0.07048911 0.17073542
000080 89 b0 80 ba 82 0f 58 3c e2 40 70 be 01 ea 22 be
       -0.0009818237 0.013187291 -0.23462251 -0.15909578
000090 04 9b de 3c bf e3 72 3d 69 bb 5d be d3 0d 02 3e
       0.027173527 0.059299227 -0.21653523 0.12700586
0000a0 60 f8 a7 be 09 c4 1d bc 08 33 87 3d fe 5a c5 be
       -0.32806683 -0.009629258 0.0660153 -0.38545984
0000b0 5b 39 ce 3d 5e 04 47 3e a6 48 6e bd 1e a7 d4 bd
       0.100695334 0.1943526 -0.05817475 -0.103834376
0000c0 fc d2 97 3e 93 7f 03 bd d4 9d ed 3d 91 2a a3 3e
       0.29653156 -0.032104086 0.11602369 0.31868413
0000d0 3f b0 19 be 22 9a 2f be d2 49 85 be 4e 3a 25 3d
       -0.15008639 -0.17148641 -0.26032883 0.040338807
0000e0 68 d3 f3 3d 26 92 b7 be 69 62 67 bc 21 da ce 3d
       0.11905557 -0.3585369 -0.014122584 0.101001985
0000f0 4e 08 a3 3d 05 b7 dc 3d b4 c5 9f 3d 74 f5 72 be
       0.07960568 0.10777096 0.07801381 -0.23726445
000100 4b b9 bb bd 88 74 bb 3e 7a 57 e8 bd 27 82 af bd
       -0.09166201 0.36612344 -0.1134481 -0.085697465
000110 58 f7 47 3e 21 48 b8 3e fb c6 48 bd df f6 02 3d
       0.19527948 0.3599253 -0.049017888 0.031973716
000120 89 e9 97 3b 9e 58 a5 bd 5b 93 1d 3e af 92 51 3e
       0.004635994 -0.08073543 0.15388243 0.20466112
000130 80 dd 0e 3d 16 4c d3 bd 38 ca 84 be 1e b8 ce bd
       0.034879208 -0.103172466 -0.2593553 -0.10093711
000140 32 1b d7 bd 76 90 56 bd 62 9e f9 3d 45 88 78 3e
       -0.10503234 -0.052383862 0.12188412 0.24270733
000150 a6 17 ef bc b7 b4 59 bd fa 1b 10 3d 1b 2d 4f 3c
       -0.029186081 -0.05315086 0.03518293 0.012645031
000160 8b 29 53 bd 05 51 00 3f 11 a6 f2 3c a5 9d 5d be
       -0.05155329 0.50123626 0.029620202 -0.21642168
000170 aa 62 80 bd e3 c9 84 bd 22 79 e2 be f2 a0 e9 bd
       -0.06268819 -0.06483819 -0.44233042 -0.11407651
000180 f9 15 c4 bb ae 54 ce bd c1 27 9d be 61 5a 89 3e
       -0.0059840647 -0.10074745 -0.30694392 0.26826766
000190 38 95 f8 3c fb 78 94 bd f1 8d 69 bd 01 18 ff be
       0.03034459 -0.07249638 -0.05702013 -0.49823
0001a0 46 22 cc 3d 90 2b 23 3d 13 1d a7 3d 54 72 2a 3e
       0.09967475 0.039836466 0.08159842 0.16645175
0001b0 6f 3e 2a 3c 60 04 52 3e e0 c3 d4 3c a7 b6 35 3c
       0.010390862 0.20509481 0.025972307 0.011090911
0001c0 f0 68 b2 be 00 03 24 bd 61 03 9c bd 14 69 36 be
       -0.34845686 -0.040041924 -0.07617832 -0.17813522
0001d0 3e 46 d0 bd 4c b1 0f bd c8 40 18 3e 51 21 42 3e
       -0.10169648 -0.035081193 0.14868462 0.18958022
0001e0 e7 57 c7 bd 6d 5d b1 bc d6 38 82 3e b5 7d da bd
       -0.09733563 -0.021650994 0.25433987 -0.10668508
0001f0 93 8b c2 3e 24 08 92 3d 75 f0 9e 3d 7b ab d3 3e
       0.37997112 0.07130459 0.07760707 0.41341767
000200 d0 66 10 be 1c ac 90 bd 4d f6 82 bd f5 ff a0 3d
       -0.1410172 -0.07064077 -0.063946344 0.0786132
000210 9f 00 9d be 55 d4 b0 3d 8d da 2e be 7e 50 9a be
       -0.30664536 0.08634249 -0.17075558 -0.30139536
000220 8c 3b 9e 3c fb de 73 3c fb 20 52 3e 68 41 42 3d
       0.019315504 0.014884706 0.20520394 0.047425658
000230 fa 27 67 be 33 61 a1 3e f7 98 2c bd 36 de c0 3d
       -0.22573844 0.3151947 -0.042138066 0.094173834
000240 af d3 18 3d d4 fb 49 be be 5a 32 3c f9 40 2a 3e
       0.037311252 -0.19724971 0.010885892 0.16626348
000250 fa 04 bf bd ef f8 8b be 4c 3a 8f bd dd 02 5e 3e
       -0.09327121 -0.2733836 -0.06993541 0.2168078
000260 aa 77 3d be 7f b1 8c be 91 ef 32 3c b0 63 4d be
       -0.1850268 -0.2747917 0.010921375 -0.20057559
000270 31 22 8f 3d 43 90 63 3e 4c a4 a8 bd 3b 90 90 be
       0.06988943 0.22223 -0.08234462 -0.2823504
000280 e1 4b 7e 3c a8 68 73 3e 91 24 64 3e bb 5d dc bd
       0.015521021 0.23770392 0.22279574 -0.10760065
000290 24 4c 8e 3d 88 47 c7 3d 24 b6 58 3d 25 77 86 bd
       0.069481164 0.097304404 0.052908078 -0.06565694

fc3.bias f4 [2]
000000 52 96 b5 bd 43 2c 05 3e
       -0.08866562 0.13005166
