Face_Classifier/model_v0.pth (torch, 332095 bytes, 10 tensors)

conv1.weight f4 [6, 1, 5, 5]
000000 85 85 de 3d da 86 30 3e 9b 78 ad 3d 56 83 58 3e
       0.108653106 0.17238942 0.08470269 0.2114385
000010 12 6d f5 bd 86 c3 ba 3d d2 d1 d1 3d 0d 1a 16 3e
       -0.11983694 0.091193244 0.10245098 0.14658375
000020 86 e1 18 3e 91 e1 21 bd e3 5c 36 3e 84 f9 95 3e
       0.1492978 -0.039521758 0.17808871 0.29291928
000030 c1 2c f1 3d fa ba 81 3e eb a3 c5 3d 49 90 25 bd
       0.11776114 0.25337964 0.096504055 -0.040420804
000040 8f da 41 3e 81 97 7f 3e 83 9d 94 3c e1 f5 2d 3e
       0.1893103 0.24960138 0.018141514 0.16988327
000050 5a f8 a4 3d 6f 45 01 3e 29 cd 6c 3e 26 ba 43 3e
       0.08055182 0.12624143 0.23125137 0.19113979
000060 bc 67 55 3e fc ff 17 be 30 68 a9 3d 07 97 bb bd
       0.20840353 -0.14843744 0.08271825 -0.091596656
000070 ed aa 08 3e f0 a2 20 3d 0a 2a 30 be f7 98 13 be
       0.13346453 0.03921789 -0.17203537 -0.1441382
000080 08 1a a6 3d 91 7f 22 be 99 98 37 be 9b eb 1f be
       0.08110434 -0.15868975 -0.17929305 -0.1561722
000090 31 da 44 3d a6 6e 1d be 80 ff cc bc 77 e9 d7 3c
       0.048059646 -0.1537424 -0.025024176 0.026356442
0000a0 fd 37 1f 3e 65 08 29 be 69 e5 9b 3d bd 13 ff 3d
       0.15548702 -0.16507109 0.07612116 0.12454937
0000b0 35 08 50 bc 50 e7 11 be e4 5f 30 3d 50 74 ec bd
       -0.012697269 -0.14248395 0.0430602 -0.11545622
0000c0 2c 7f a8 bc 97 1c d8 bd 2b f1 b9 3e 35 e2 ae bd
       -0.020568453 -0.10552328 0.3631681 -0.08539239
0000d0 5e b7 09 bd 69 fb 9e 3d 11 37 b4 3e 20 9d 4d 3e
       -0.03362214 0.077627964 0.35198262 0.2007947
0000e0 d7 2f 3b 3e d7 c4 54 3e d6 ad 15 3e 5a ab 30 3e
       0.18279968 0.20778213 0.14617094 0.17252865
0000f0 5f 86 0a 3f c0 7b 0e 3f de 35 16 3f 78 01 dd 3e
       0.54111284 0.5565758 0.58675945 0.43165183
000100 49 e4 bd 3e d8 c7 f9 bb 99 bf 8b be f9 ab b7 be
       0.3708823 -0.0076227 -0.27294615 -0.35873392
000110 0b 35 b9 3d 8b b0 9e bd af 61 cc be be 7f 4d bf
       0.0904332 -0.07748517 -0.39918277 -0.80273044
000120 d1 7e 4e bf fb c7 3b bf 32 04 9a bd 6d 54 a3 3d
       -0.80662256 -0.7335202 -0.075203314 0.07975087
000130 ba 13 a8 3e 9c 40 7c be ef 4c 21 bf 41 c5 9f be
       0.3282755 -0.24634022 -0.63008016 -0.3120518
000140 61 1c ae 3e 8d b9 c3 3e 0d 87 24 3e 0d 44 d7 bc
       0.34006026 0.38227502 0.16067143 -0.026277566
000150 0f e2 ce be fb 4d da 3e a7 6a 2a 3e de bc a0 3d
       -0.40406844 0.4263762 0.16642247 0.078485236
000160 93 75 94 be 7e 11 b1 be 46 cc 61 3e 0c 90 94 3e
       -0.28995952 -0.34583658 0.2205058 0.2901615
000170 bd 65 09 3e 79 fd 76 bd f2 7c 73 be 1e ec 09 3c
       0.13417716 -0.060300324 -0.23778132 0.008418111
000180 8a a9 4f 3d 3a c2 11 3e d4 a0 73 3d 85 72 8d bc
       0.050698794 0.14234248 0.05947955 -0.017266521
000190 84 dc 00 bf 9c d6 70 3d 38 dd 36 3e 51 a5 a8 be
       -0.5033648 0.058798417 0.17857826 -0.32938626
0001a0 81 6d 92 be ef c8 46 be d8 44 b6 bd d3 6d 48 3e
       -0.2859917 -0.19412588 -0.0889985 0.19573145
0001b0 13 24 62 3e 74 e3 97 bd 01 67 44 3e 6b f3 b3 bd
       0.22084074 -0.0741643 0.19179918 -0.08786663
0001c0 d7 3e 3f 3d ad a3 2d 3e 35 56 86 3e aa 1e 14 3e
       0.046690788 0.16956969 0.26237646 0.14464822
0001d0 59 02 63 3e 1f cf 0c 3e ad e8 66 3e 37 17 16 3e
       0.22168864 0.13750885 0.22549696 0.14657293
0001e0 0a 0a 29 3e 48 09 14 3e e4 23 25 3e a6 ce 23 3e
       0.16507736 0.14456666 0.16126972 0.15996799
0001f0 b5 ff 82 3e 74 8b b9 3e ed d9 b2 bd 9f 1f 0f bf
       0.25585714 0.36239207 -0.08732972 -0.55907625
000200 32 4c 17 be 88 66 9f 3e 41 ae f2 3e 7f 74 aa be
       -0.1477516 0.31132913 0.4739857 -0.33292004
000210 6c e6 05 bf 6d 10 e9 3e 3f 95 14 3f 42 5b 14 be
       -0.5230472 0.45520344 0.5804023 -0.14487937
000220 78 6a a2 be 9c 31 b4 be ea f6 8f bd 8b 92 50 bd
       -0.31721854 -0.351941 -0.07029517 -0.050921004
000230 33 d7 e5 3e b1 bc 66 bd fd 55 b7 be 18 fc 25 be
       0.44890746 -0.056332294 -0.3580779 -0.16209447
000240 d1 f7 ac 3e b8 d1 c5 3e e5 15 71 3c 6f 92 f0 be
       0.3378282 0.38636565 0.014714693 -0.4698672
000250 b7 4f 91 be 91 b5 b1 3e
       -0.2838113 0.34708837

conv1.bias f4 [6]
000000 4e d7 37 be 2b aa 1c 3e c0 bf 01 bd dc 46 3f 3d
       -0.17953226 0.15299289 -0.031677008 0.046698436
000010 9e c3 65 be 18 bd cc 3d
       -0.22437903 0.09997004

conv2.weight f4 [16, 6, 5, 5]
000000 d8 bd 05 3b e4 5e 2d bc f2 e0 b3 3d 2f fa f2 3d
       0.0020407345 -0.010581706 0.08783139 0.11864125
000010 25 7b 60 3e bd aa c8 bd b1 07 b7 bd c2 c2 56 bc
       0.21921976 -0.09798191 -0.08937014 -0.013107957
000020 02 30 28 3e 01 94 41 3e b5 89 ea bd 9d 7c ec bd
       0.16424564 0.18904115 -0.11452047 -0.115472056
000030 d1 42 bb bd 57 c6 e0 3d 70 b9 22 3e 5b a4 3b be
       -0.091436036 0.1097533 0.15891051 -0.18324415
000040 e2 c7 42 be 39 77 2f bd b0 7b d4 3c 74 8d 00 3a
       -0.19021562 -0.04283831 0.025937885 0.00049038907
000050 47 ec 62 bd 7f dc d3 bc 85 be aa 3c 20 c5 20 bc
       -0.055401113 -0.025861977 0.0208428 -0.009812623
000060 23 46 67 3d fd 98 76 bd 58 51 cd bb 37 36 84 bd
       0.056463372 -0.060204495 -0.0062658004 -0.06455653
000070 ee ee ee 3c be ba 79 3d 47 9c 6f bd 4a ac 3d bd
       0.029166665 0.060969107 -0.058498647 -0.046306886
000080 e3 90 dc ba 61 b1 ac 3b 2e e7 32 bd 28 9f c6 ba
       -0.0016827848 0.0052701687 -0.0436775 -0.0015153633
000090 2e 1e 5f bb 05 3f 66 bd 87 85 3b 3c c8 dc 87 3d
       -0.0034045088 -0.056212444 0.01144541 0.066339076
0000a0 16 40 a8 bc 22 f5 f3 bc 24 41 c5 bc ca 5d 16 3d
       -0.020538371 -0.029779974 -0.024078913 0.036710538
0000b0 ba c5 e0 bc bc f2 35 3d db 08 75 bd db 4d 96 bc
       -0.027438033 0.044420943 -0.0598229 -0.018347671
0000c0 27 7a 5c 3d 9d 7d 77 bd 58 04 52 bd 92 fe 02 3d
       0.05382743 -0.06042253 -0.051273674 0.03198106
0000d0 c0 e5 d7 3d 0f fd 20 bd b7 fe 43 3c 58 79 2e 3e
       0.10541868 -0.039303835 0.011962584 0.17038476
0000e0 8c c5 e6 3d 7e 71 be bc e2 7f 87 bc 8d 5a 95 bb
       0.11268148 -0.023247477 -0.016540471 -0.0045579136
0000f0 17 17 88 3d 96 63 b5 3d c1 c8 bc 3d 18 12 4e 3d
       0.06645029 0.08856885 0.09217978 0.050310224
000100 41 d2 cc bd 51 df da 3d 2a dc ed 3d 36 2c 2e bc
       -0.1000104 0.106871255 0.116142586 -0.010630658
000110 6b 98 65 3d f4 7b b4 bd fd 67 62 3d 34 79 c1 bc
       0.05605356 -0.08812705 0.055274952 -0.023617364
000120 29 e2 74 3c 7c 56 49 bc d4 b0 29 3d cc 30 10 bd
       0.014946499 -0.012288686 0.041428402 -0.035202786
000130 e4 e7 45 bd 44 12 eb bd 19 c8 02 bd bc 7d b2 bd
       -0.04831685 -0.11478093 -0.03192911 -0.08715388
000140 c8 02 9b 3c 45 a0 81 bd 6d 46 33 be f7 85 be bd
       0.018922225 -0.06329397 -0.17507334 -0.093028955
000150 6d ca 91 bd 4c 5f 0b 3c cc 97 f4 3c d0 82 9f bd
       -0.07118688 0.008506607 0.029857539 -0.077886224
000160 5b 2f e4 bd 5d 6d cf bb cd 19 05 bd 1e 13 04 bd
       -0.11141845 -0.006330176 -0.03249531 -0.032244794
000170 d6 5e 86 3c 1d 91 c1 bd 04 0c b6 3d 07 a8 97 3d
       0.016402643 -0.09451506 0.088890105 0.074050955
000180 45 b8 54 bd f9 63 77 bc 4a 07 d5 bc 92 c3 7d bd
       -0.051933546 -0.015099519 -0.026004452 -0.06195409
000190 be 8b 38 3d e5 ff 2a 3d 5d f6 0e 3d a0 e3 bc 3d
       0.045055144 0.041747946 0.03490292 0.092231035
0001a0 62 7c 2e 3d 31 06 44 3d c2 e4 79 bc d3 9f bb bc
       0.04259909 0.047857467 -0.015252294 -0.022903359
0001b0 9e ed 62 3c 37 85 25 bd b7 51 18 3d 5f 88 b5 bc
       0.013850598 -0.040410247 0.037187304 -0.022159753
0001c0 fe 19 a4 bd e5 a6 44 3d 36 7f 0b bd ab 94 ad bd
       -0.0801277 0.048010726 -0.034056865 -0.08475622
0001d0 38 fe 2f be fc e0 8f bd 36 2d 9f bd f9 5a c1 3b
       -0.1718682 -0.07025334 -0.07772295 0.0059007374
0001e0 38 b5 fc 3c c8 77 70 3d 71 ea 77 3c d2 e4 cc ba
       0.03084813 0.058707982 0.015131579 -0.0015632159
0001f0 b3 a3 7f 3d 38 56 e1 3c 9c 72 47 bc 90 75 28 3b
       0.062411975 0.027506933 -0.012173321 0.0025704838
000200 48 19 b9 bc f2 8e 03 be 20 a4 14 3c e8 d3 07 3e
       -0.022595063 -0.12847498 0.009072334 0.1326443
000210 cd 24 34 3c 04 c8 a4 3d f3 1a 6c bd c4 fd 5e 3d
       0.010995102 0.080459625 -0.05764289 0.05444123
000220 eb 19 ad 3d 88 7b 15 3e 9a 2e 8f 3d f7 fb 76 3d
       0.08452209 0.14597905 0.069913104 0.060298886
000230 0d d5 9d 3d 2a 01 07 3d 45 e0 f7 3c ef 72 92 3d
       0.07706652 0.032960095 0.030258307 0.07150828
000240 52 28 08 3d 44 6f f7 3d 91 18 a3 3d d2 93 e9 3d
       0.033241577 0.12081769 0.0796367 0.114051476
000250 16 e0 62 3d 53 21 0f 3e 58 a9 50 3d 97 b5 3c bd
       0.055389486 0.13977556 0.05094275 -0.046071615
000260 6d 70 0d 3d 14 3a df 3d dc 20 0a 3c 7f 8a 2d bc
       0.034531046 0.108997494 0.008430686 -0.010592102
000270 91 33 3e 3d d0 34 cf bd d3 60 2f bc c8 39 00 be
       0.046435896 -0.10117495 -0.010704237 -0.12522042
000280 b0 87 99 3c 49 60 10 3c 5f e6 bb bd 32 ec 1c be
       0.018741459 0.008812019 -0.09174799 -0.15324476
000290 2f ad f9 bd ad ab 8f bd ad 24 3b 3d d2 18 a6 3d
       -0.12191235 -0.070151664 0.045689274 0.08110203
0002a0 f0 eb 55 3c 1b 79 c9 bd ae ad 27 bc fd f1 43 bd
       0.01305674 -0.09837552 -0.01023428 -0.0478382
0002b0 03 26 c1 ba 48 ed 12 3e 8e 41 82 3d 97 c7 8e 3d
       -0.001473606 0.14348328 0.0636016 0.069716625
0002c0 97 07 38 bd 05 62 80 bd 88 41 fb bc f4 c4 0c 3c
       -0.044929113 -0.06268696 -0.030670896 0.008591879
0002d0 fc fd d5 bc 09 0c 83 3d 2f 20 9b 3d 45 8f 24 bd
       -0.026122086 0.0639878 0.07574498 -0.040175695
0002e0 f4 2b 39 bd 21 34 be 3c 18 20 67 bd cd 9f 8f bd
       -0.045207933 0.023218216 -0.05642709 -0.070129015
0002f0 97 b1 9f 3c 61 56 6a 3d 94 56 27 bd 9a b3 ce bb
       0.019493861 0.057211284 -0.04085405 -0.0063080313
000300 4d 97 fc bc 64 37 39 3c 5b 0a 1c 3d 8c a3 5c bd
       -0.030833865 0.01130471 0.038095813 -0.053866908
000310 1e 13 6a 3d 3e b1 7f 3d 9d 46 98 bd 33 fd 91 bd
       0.057147138 0.06242489 -0.074353434 -0.07128372
000320 1f c6 97 3d 4a c3 1b 3d 39 40 a0 3d 23 01 87 3d
       0.074108355 0.03802804 0.078247495 0.06592014
000330 a2 e6 5f 3e 98 67 d7 3d dd b1 0c 3e d5 62 ab 3e
       0.21865323 0.10517806 0.13739724 0.3347384
000340 be f3 2c 3e 12 8e af 3e 04 f7 c6 3c 17 5e 0e 3d
       0.16889855 0.3428808 0.024287708 0.0347577
000350 6e b6 5c bc a2 3a c4 bd 7b 9d 0d 3e 69 84 05 3d
       -0.013471229 -0.09581496 0.13829605 0.03259698
000360 98 52 a4 3d 5a 2a 41 bc ee 4d af bb 67 71 28 3c
       0.08023566 -0.011789883 -0.005349866 0.0102809435
000370 ec 81 f8 3d 4e 88 70 3d f4 f9 83 3e ed ca 24 3e
       0.12134156 0.05872374 0.25776637 0.16093035
000380 b4 02 80 3e 9e 33 9b 3c c8 c3 87 bd 7f fd 3f 3d
       0.25002062 0.018945511 -0.06629139 0.046872612
000390 ba f8 c0 3d ac 3d 14 be 90 67 5e 3c e4 10 dd bd
       0.09422441 -0.14476651 0.013574496 -0.10794237
0003a0 55 80 cd bd ce 2d 03 3d ac b1 ef bd 7e be f9 bc
       -0.10034243 0.032026105 -0.1170381 -0.030486342
0003b0 2e 75 b3 3d ad a1 07 bd 42 23 9b 3c 97 38 4a be
       0.087625846 -0.03311317 0.01893771 -0.1974815
0003c0 cb 84 7f bd fa 76 84 3b 43 a3 7d bd af 88 0d 3d
       -0.0623825 0.0040425034 -0.061923277 0.03455418
0003d0 e4 e1 10 3c 62 91 52 bd 40 d7 aa bd 0c bb 7b 3c
       0.008842919 -0.05140818 -0.08341837 0.01536442
0003e0 25 68 ed 3c 7c 8d d6 bd 5f 25 3d 3d 68 a7 bd 3d
       0.028980324 -0.10476205 0.046178218 0.09260446
0003f0 88 f1 8e 3d aa e4 c2 3d 2d 99 cb 3d 5c a4 ad bd
       0.06979662 0.095162705 0.09941325 -0.08478615

conv2.bias f4 [16]
000000 10 b3 f7 3d f0 42 8a be 7e 9e 78 bd 3e e9 af bd
       0.120947 -0.27004194 -0.060698025 -0.08589409
000010 13 cb 1d 3d 50 4d 32 3e be b6 58 bc 0f 8d f1 3c
       0.038523745 0.17412305 -0.013227163 0.029486207
000020 2d 7d 46 3e 7a 02 d3 3c d1 ec 66 be b1 ca 3d 3d
       0.19383688 0.025758017 -0.22551276 0.04633588
000030 f0 94 2f 3c cd 82 8b be fb 7e e5 3d 8d f6 bb bd
       0.010716662 -0.2724823 0.1120586 -0.09177885

fc1.weight f4 [120, 576]
000000 9d fd 9f bc d1 69 34 bc 1d 8e 1b 3c 57 54 54 bc
       -0.019530112 -0.011011557 0.009494332 -0.012959561
000010 ff 53 aa 3c 13 6a 2c 3c 25 bf 34 3d a1 fb e5 3b
       0.020792006 0.010523337 0.044127602 0.007018522
000020 1d c5 8b 3d 6c 31 7d 3d 7d 7e 07 3c bf b1 8d bc
       0.06824706 0.06181471 0.008269903 -0.01729667
000030 a9 24 f9 bb c8 47 99 bc 28 5a 19 3d 00 2a cd 3c
       -0.007603247 -0.018710986 0.037439495 0.025044441
000040 79 3d f7 3b 04 0a d5 bc af 7a bd bc 3f 8d ea bc
       0.00754517 -0.026005752 -0.02312979 -0.028631805
000050 1f ba 84 ba 2e 6e 3b 3d 82 f5 c9 3c 6b e9 cb b9
       -0.0010126269 0.045759372 0.0246532 -0.00038893087
000060 a2 b4 67 b9 d4 ca f2 3c 90 f7 cb bc 4a 51 4b 3b
       -0.00022097168 0.029637732 -0.02489832 0.0031023794
000070 a3 56 71 3d 52 8c a9 3c 8a ba 00 bd 1f e5 2c 3c
       0.058920514 0.020696793 -0.031427898 0.010552674
000080 39 23 41 bc 66 d6 70 3c 0b bf 02 bd 10 f6 54 bc
       -0.011788183 0.014699554 -0.031920474 -0.012998119
000090 94 7c ee bb 75 fe 19 3d eb 38 93 3c 28 b1 55 bd
       -0.0072780345 0.037596185 0.017971477 -0.052170902
0000a0 43 5d 55 bd aa 16 a1 bd 8a 8a 31 3d d2 80 7b 3b
       -0.052090894 -0.07865651 0.04334501 0.0038376343
0000b0 c3 5d 80 bc 30 b7 0f bd 80 6e 5d 3d c9 dc 25 bd
       -0.01566971 -0.03508681 0.05406046 -0.04049376
0000c0 9c 65 9a 3b c6 53 e0 3b c7 7c 99 3c 8d d2 d1 3c
       0.00471182 0.006845924 0.018736256 0.025613094
0000d0 02 08 25 3d 8f af ca bc 19 bf 0a bd 13 a3 3c 3d
       0.04029084 -0.024741916 -0.03387365 0.046053957
0000e0 e5 dd 8e 3d 57 69 58 3d 1f 83 22 3d 7a b1 6f bb
       0.06975917 0.052834835 0.039675828 -0.003657429
0000f0 d6 cb 76 3b 94 fc f8 bc 28 8d 3e 3d 9f a4 bc bc
       0.0037658117 -0.030393876 0.046521336 -0.023027716
000100 8a 04 0c 3d f2 d2 88 bd ed cf b3 3c 10 ce d1 bb
       0.034184016 -0.066808596 0.021949733 -0.0064027384
000110 5e bf 68 3a f2 ff 34 bc ac c0 cc 3b ea 0e 91 bc
       0.00088786136 -0.01104735 0.006248554 -0.017707307
000120 d3 60 2b bd d2 9a 74 3c 82 af 0b bc 2e be 23 3d
       -0.041840386 0.01492949 -0.008525731 0.03997629
000130 56 81 ae 3c f6 8b ca 3c 3b 72 a9 bc 7d 5c 12 bc
       0.021301907 0.024724942 -0.020684352 -0.008933184
000140 ae 62 46 bc 1c 56 e9 3b 10 e5 2e bd 3a ab 95 bc
       -0.012108488 0.0071208607 -0.04269892 -0.018270124
000150 f9 8f f5 bc 26 32 02 3d 8a 21 f0 3c e1 74 10 bd
       -0.029975878 0.031786107 0.029312868 -0.035267714
000160 ca ae 91 bc 63 d4 13 3d 2b 6e 48 3c 09 f7 c3 ba
       -0.017783541 0.03609122 0.012233297 -0.0014950942
000170 7f d3 aa 3c f9 ff 35 bd fe c0 16 bd be 6e 80 bb
       0.020852802 -0.044433568 -0.036805145 -0.0039194515
000180 1a e3 ec 3c 26 07 08 3c 7b ff ed 3c 1d ca bb bc
       0.028916884 0.008302486 0.029052487 -0.022923524
000190 54 4a 0c bd ee 8d 81 b9 2f 5f 47 bd 94 d8 21 bd
       -0.034250572 -0.00024710543 -0.04867476 -0.039513186
0001a0 27 c9 51 3b bd f6 11 3c a6 8a 18 3d 00 bd 14 3c
       0.0032010765 0.008908925 0.0372416 0.009078264
0001b0 c4 2a 90 bc 8a 0e e1 bc 85 bf 9a bc 48 f4 0e 3d
       -0.017598517 -0.027472753 -0.018890152 0.034900934
0001c0 c9 3f a9 bc 72 ae 94 bc 41 be 67 3c 3e b2 0b bd
       -0.020660298 -0.018149588 0.014144481 -0.034105532
0001d0 d8 29 98 3c 0b e3 71 3c a9 da 04 3a 0f 68 ab 3c
       0.01857464 0.014763604 0.00050679833 0.020923642
0001e0 67 7d e3 bc 56 70 8a bc 12 e7 ec bb 0c 74 f3 3c
       -0.027769757 -0.01689927 -0.007229694 0.029718421
0001f0 d8 ca da bc fa 9c 8d 3a 97 0f 1a bd 6a 20 f5 bc
       -0.026708052 0.0010804229 -0.037612524 -0.029922683
000200 7b 36 98 3c c1 4e 07 bd f5 53 11 bd 91 0d b9 3a
       0.018580666 -0.03303409 -0.03548046 0.0014118423
000210 ee 69 ad bc b2 fa c3 3c 95 46 eb bc 47 2c ee 3b
       -0.021168675 0.023923252 -0.02872018 0.007268462
000220 89 0d 0c bd e6 a2 74 bc ee 03 2f bd e1 d5 93 3b
       -0.034192596 -0.014931416 -0.042728357 0.0045115803
000230 05 0e 5a 3c 6f 8f 81 bc 93 b3 0a 3d 0e 89 10 bb
       0.013309007 -0.015815465 0.03386266 -0.0022054347
000240 10 c8 4a bd 6f 0d 3a 3c 56 18 cd 3c 9d 43 00 3d
       -0.0495072 0.011355742 0.025036018 0.03131448
000250 d2 8e 05 3b 13 52 68 bd 82 20 f1 3a c6 85 9a bc
       0.0020379317 -0.056718897 0.0018396529 -0.018862616
000260 66 0c 41 bd 9a 74 99 3c 3c 8a 68 3c 30 9c 4a 3c
       -0.047130965 0.018732358 0.014193114 0.01236634
000270 b5 54 24 bc d9 4d 26 bd 68 f1 ea bc 11 94 56 ba
       -0.010029961 -0.040601585 -0.028679565 -0.0008185516
000280 d3 35 d6 bb 50 ec 6f bd 37 cd d8 3c c1 db 2b bb
       -0.006537178 -0.058574975 0.026465042 -0.0026223513
000290 f4 3c 68 3a d7 c2 ed 3c 29 0a 50 3c 5d 9e 90 39
       0.00088591804 0.029023571 0.012697735 0.0002758381
0002a0 98 ab 5e 3d 95 3b 1e bc 06 0e 1d 3d af 5a 08 3d
       0.054362863 -0.00965776 0.038343452 0.033289608
0002b0 4e a4 b9 bc 0f c7 31 bd 32 f0 94 3d 43 ab 21 3d
       -0.022661354 -0.043402728 0.07272376 0.03946997
0002c0 d0 55 79 3b f9 47 97 3c d0 b5 5f bd 66 f7 46 bc
       0.0038045533 0.018466936 -0.05461675 -0.012143945
0002d0 55 07 a4 3d 35 aa 19 3d a4 f1 e5 3c 93 84 b6 3c
       0.08009211 0.037515838 0.028069325 0.022280013
0002e0 98 a0 c7 bc 32 43 53 3d 93 4c a1 3b ad bd 9c bc
       -0.02436857 0.051577754 0.0049224584 -0.019133413
0002f0 b1 a1 f6 3a a8 5b 9e bc 65 9f 22 bc e3 84 52 3c
       0.0018816498 -0.019330814 -0.009925698 0.0128490655
000300 9e 0b 9a bc a6 40 4e bc e5 f9 a5 bc e5 b5 a6 bb
       -0.018804368 -0.012588656 -0.02026076 -0.0050876015
000310 ac 47 85 bd 0f 78 c7 bc 1f ec b0 bb d7 b0 26 3c
       -0.06507811 -0.02434924 -0.0053992416 0.010173998
000320 4f 59 2a bd 80 b5 25 3a f3 e4 ca 3c 9a cc 0b bd
       -0.041589078 0.0006321296 0.024767375 -0.03413067
000330 cc 0f ec bc 19 64 01 3d b6 8a a4 3c 24 2b a0 bb
       -0.028816126 0.0315896 0.020085674 -0.0048879553
000340 b3 12 57 bc d2 ea c0 bb 1c 94 d5 3d 3b fb 47 3d
       -0.013127017 -0.0058873678 0.1042864 0.048823576
000350 2d fa 5d bc 7b 4c 53 3b 78 6f 28 3d e6 48 b3 3c
       -0.013548416 0.003224163 0.04112193 0.021885347
000360 78 73 f5 3b c6 a5 68 3d 5e 51 8c 3c 2a c2 4b bd
       0.0074905716 0.05679872 0.017128643 -0.049745716
000370 5c c0 6f bc ff 9f 84 3a c1 8f 56 bd 9b 18 35 3d
       -0.014633264 0.0010118483 -0.05238319 0.04421292
000380 e8 87 d4 3c 6c 51 ca 3c 21 d8 6b 3d 5e 6b e7 3c
       0.025943711 0.024697028 0.057579163 0.028249439
000390 88 ac 31 bd 0b 3b 20 3d 4e 79 80 bc b2 b8 c2 3c
       -0.04337743 0.039118808 -0.015682843 0.02376971
0003a0 0a ac 5a bd d9 7c e8 bc 73 4a 6d bd 63 02 6f 3c
       -0.053386725 -0.028379845 -0.05793233 0.014587971
0003b0 01 74 32 bc 07 c7 28 3d db 0d 40 bd bf 1c e3 3a
       -0.010891915 0.041205432 -0.046888214 0.0017327293
0003c0 09 eb 50 bd 92 14 00 3d 0d 9c 61 3d 8c 60 e7 bb
       -0.051005397 0.031269617 0.055080462 -0.00706107
0003d0 bb 9d dd bb bb 61 0e bc ce 1e 4f bd 52 50 9a ba
       -0.0067631877 -0.008690293 -0.050566487 -0.0011773205
0003e0 46 d1 76 3c a8 1f 5e 3d 91 4c 8c bc 55 95 ac bb
       0.015064543 0.05422941 -0.017126353 -0.005266825
0003f0 8d 5d 21 bd 6e 9b 57 3d b2 f5 4c 3d 11 12 a1 3c
       -0.039395858 0.052638464 0.050039 0.019661935

fc1.bias f4 [120]
000000 17 b2 31 3c 1c 46 9d bc 27 75 b7 3c 34 e4 a1 3c
       0.010845683 -0.01919847 0.02239473 0.019762136
000010 ca 96 93 3c c9 b0 fd bb bd 45 8d bb bc 09 10 3d
       0.018016238 -0.0077420217 -0.004311292 0.035165533
000020 e9 8c 18 3d 6d 9c d7 3c 88 78 bd bc 86 12 19 bd
       0.037243757 0.026319707 -0.023128763 -0.03737118
000030 87 b9 b3 3c 33 7d 11 bd 2c 66 c9 bc ea 3d 38 3d
       0.021939052 -0.03551979 -0.024584852 0.04498092
000040 4b 6d ef bc 09 ae 97 3c 3d 11 dd bb 37 72 48 bb
       -0.02922692 0.018515604 -0.0067464397 -0.0030585655
000050 bf 11 e7 3c bf 71 d3 3c 00 86 01 bd bc a8 ba bb
       0.028206704 0.025811074 -0.031621933 -0.0056963842
000060 1f c1 04 3d 5e a6 09 3b b7 f1 7a 3d cb bc ec bc
       0.032410737 0.0021003704 0.061265673 -0.028898617
000070 50 65 f5 3c f5 b4 25 ba 1b 36 5e bb 4e fd 6c bc
       0.029955536 -0.0006321215 -0.003390676 -0.014464689
000080 d6 06 c8 3d 26 bd 14 bb c9 8f 29 3c 12 a3 52 3d
       0.09766929 -0.002269575 0.010349222 0.051425047
000090 90 95 c8 3c c6 4f fd 3d 90 d1 fa bc 81 2c 08 3d
       0.02448538 0.12368731 -0.030617505 0.033245567
0000a0 83 93 7f bc ef 69 0e bd e1 4c 12 3d 3a 74 72 bc
       -0.015599134 -0.034768995 0.03571785 -0.014798218
0000b0 62 77 db 3c bb ae 13 3d 98 2f c5 3b 8a 95 1d 3c
       0.026790325 0.036055308 0.0060176365 0.009618172
0000c0 df 2f 2d 3c 7c c3 9f 3a b1 dd 8b bc 2b ca 08 3d
       0.010570495 0.0012188996 -0.017073484 0.033395927
0000d0 c5 f9 1e 3c ae 1c 0a 3d 89 3d ad 3c 9b 63 5c 3d
       0.009703104 0.033718757 0.021147506 0.05380593
0000e0 e6 35 94 3c 98 39 12 3e 27 39 d5 3c 70 88 12 bd
       0.018092107 0.14279783 0.026028229 -0.03577465
0000f0 6f 55 d4 bc a9 e9 1b 3d 02 6f 25 bd 83 ee e4 bc
       -0.025919644 0.038064633 -0.04038907 -0.027945763
000100 89 0a 79 bc 21 49 5f 3d 8f d5 a5 bb 7c 28 67 3c
       -0.015200266 0.0545131 -0.0050608586 0.014108773
000110 3e f4 4e bc ab 2d a7 ba 31 3d 9f bc 98 ad e2 3c
       -0.012631474 -0.0012754699 -0.019438358 0.027670667
000120 8e 59 86 3c 3d e4 b4 3c 8a f3 87 3c 0e 7e 5f 3b
       0.016400125 0.022081489 0.01659562 0.0034102234
000130 33 7b eb 3d b1 13 24 3d e6 c5 9f bc 0c 7e da bb
       0.11498108 0.04005784 -0.019503545 -0.006667858
000140 33 07 88 3c 18 cf 36 bc 81 4f ec 3c d5 ac 4a 3c
       0.016604995 -0.011157773 0.028846504 0.012370308
000150 ac 48 6b bd c2 31 9b 3b f0 37 34 bb 56 18 3a bd
       -0.057442352 0.004736156 -0.0027499162 -0.045433365
000160 2b 36 73 3a 2c 49 6f bb 07 46 2e 3d 92 8c fe 3c
       0.0009277786 -0.003651212 0.042547252 0.031072889
000170 56 3f 49 3d 30 63 90 b9 5e 5c ab 3b b1 4e 44 3b
       0.049132667 -0.0002753972 0.005229517 0.002995413
000180 79 87 cf 3c 8e 73 60 3d c6 1d 61 bc da ea 98 3d
       0.025333153 0.0547977 -0.013740009 0.074666694
000190 21 4e 82 3c ac 80 56 3d 4d 30 2f bd e5 c3 16 bb
       0.015906395 0.052368805 -0.042770673 -0.0023004946
0001a0 85 da 8a 3c 9c be 02 3d 9d b3 24 3d 7f d7 09 bd
       0.016949901 0.03192006 0.040210355 -0.03365278
0001b0 ac 0a 6b bb 64 0f 10 bd 91 c2 46 3d 10 09 80 ba
       -0.0035864515 -0.035170928 0.048525397 -0.0009768326
0001c0 ab 28 54 3c 19 08 fc bc e1 97 1a bc 9c 7b 15 ba
       0.012949149 -0.03076558 -0.009435625 -0.0005702318
0001d0 54 17 06 3d a8 4d 00 3d 27 7b 4e 3b b1 98 5e bb
       0.03273709 0.03132406 0.003150651 -0.0033965523

fc2.weight f4 [84, 120]
000000 86 d8 43 bd 74 ee 7d 3d e2 79 3e 3d 2b d2 58 bd
       -0.047813915 0.061994985 0.046502955 -0.052934807
000010 b4 f1 22 3d 8d 09 a1 3d c8 07 87 bd 2c 67 d1 bc
       0.039781287 0.0786315 -0.06593281 -0.025561891
000020 78 2e 21 bd ea 9b 7f bd 05 bc 03 3b 21 5f 41 bd
       -0.039350957 -0.06240455 0.0020101082 -0.047209863
000030 7c 33 d7 3c 89 c6 02 bb 2a 0e b0 3d 24 af 78 3d
       0.026269667 -0.0019954762 0.085964516 0.060713902
000040 a6 4c ae bd ce 54 64 bc 82 82 ec bb c4 92 4e 3c
       -0.08510713 -0.013936235 -0.007217706 0.012608234
000050 cc d1 4e bd 1f b2 b6 3d ee 18 84 bd 28 4c 7e ba
       -0.050493047 0.08920693 -0.064500675 -0.0009700679
000060 4a 89 0c bc 62 24 39 3d 3c 92 e0 bc d5 20 8a bc
       -0.008577654 0.045200713 -0.02741348 -0.016861359
000070 2f ba 9b 3d 47 0e 22 3d b2 0c 84 bd d9 bc 24 bd
       0.07603871 0.039564397 -0.06447734 -0.04021916
000080 6e ac c3 bc 0b 1e 7e bd 28 c9 94 3b df 08 72 3d
       -0.023885932 -0.06204037 0.0045405813 0.05909049
000090 a7 ca 53 bd f2 f7 44 bd b8 70 5f bd ce 87 cc ba
       -0.051706936 -0.04808802 -0.054550856 -0.0015604438
0000a0 92 66 6a 3d 9d 36 0c bd a7 dd ae ba 26 36 83 3d
       0.057226725 -0.03423177 -0.0013341204 0.06406812
0000b0 1e 28 44 3d 32 cb 1f bd e9 5d a6 3d 66 57 5b bb
       0.04788982 -0.03901214 0.08123381 -0.0033468842
0000c0 8c 55 25 3b 88 25 72 3d f0 37 96 3c fc 63 47 3d
       0.0025227992 0.059117824 0.01833722 0.048679337
0000d0 af e9 68 bd cd 69 0c bd 38 8c ad 3d a2 72 07 bd
       -0.056863483 -0.034280587 0.0847401 -0.033068307
0000e0 2e 2f 2b 3d 32 c6 0b 3c 29 5b 9f 3d 46 3b ba 3d
       0.04179304 0.00853114 0.07781059 0.09093337
0000f0 62 70 c7 bc a5 ab 80 3c fe 8e a8 bd 19 a6 aa bd
       -0.02434558 0.015706846 -0.082303986 -0.08332462
000100 57 65 7a 3d 04 34 8d 3d 35 80 23 bc f5 87 d3 bb
       0.0611318 0.06894687 -0.009979297 -0.0064554163
000110 9f 8a 21 3d 21 c8 46 bd 9b cf 2d 3c cf 53 8d 3d
       0.03943884 -0.0485307 0.010608579 0.06900751
000120 d2 68 8b bd 66 0b ce bc 9a 80 10 3d 5a d6 39 bd
       -0.06807102 -0.02515192 0.035278894 -0.045370437
000130 30 36 2e bd 2e b4 be 3b 10 64 75 bd 15 a6 76 bc
       -0.042532146 0.005819819 -0.05990988 -0.0150542455
000140 0c b0 0a 3d fe df 9b bd 07 1c 86 3d 88 a8 87 3d
       0.033859298 -0.076110825 0.065483145 0.06623942
000150 db fc 31 bd 65 d0 f2 bb f3 5e 8f bd 16 63 20 bd
       -0.043454032 -0.0074100965 -0.07000532 -0.039156996
000160 8d eb 53 3d 06 9b 24 3d 9b d9 93 bc ab 04 f7 3c
       0.05173831 0.040186904 -0.018048098 0.030153593
000170 9c fb 2f 3d da 36 8c bd 77 82 6b bb 89 23 9c bc
       0.042964563 -0.068463996 -0.0035935917 -0.019059913
000180 ca a6 a2 3d 87 e8 34 3d fa 63 d6 3c d7 bb ba bd
       0.07941969 0.044167068 0.02617072 -0.09117859
000190 b9 1c 6b 3d 76 6b b3 bd 18 5b 1f bd c5 f4 82 3b
       0.05740044 -0.08760731 -0.038905233 0.003996464
0001a0 79 47 61 3c 3f 69 a8 bd b6 7f 65 3d c6 66 05 3b
       0.013749951 -0.08223199 0.056029998 0.0020355447
0001b0 fb 61 b4 bc b4 df 86 bd 45 f8 79 bd d2 4e 87 bd
       -0.022019377 -0.06585637 -0.061027784 -0.06606831
0001c0 fe 97 3c bc 17 4f 8f 3d 5b 6b b6 bc 2b bf b9 3d
       -0.011510847 0.06997507 -0.022267988 0.090696655
0001d0 93 69 3b 3d 30 52 d8 bc 66 02 6a bd 57 77 90 3d
       0.04575498 -0.026406378 -0.057131194 0.07054012
0001e0 64 88 94 3d 0a a8 9a bd 6e c8 5d 3d 8a 22 c8 3c
       0.07252577 -0.07551582 0.054146223 0.024430532
0001f0 31 73 6e bd 81 73 ab 3d 8b 52 da bd 12 72 4c 3d
       -0.058215324 0.0837164 -0.10660275 0.049913473
000200 70 e4 cf bd 01 8b e3 3c 88 54 bf bd 3c 4e bf 3d
       -0.10150993 0.027776243 -0.09342295 0.09341094
000210 c7 ab 3c bd 3c 14 90 3d e1 90 2c bd 7e 1d d3 3d
       -0.046062257 0.070351094 -0.042130355 0.103083596
000220 f3 df b0 3d 6e cd 71 3d 25 8b ae bd e4 b6 a5 3d
       0.08636465 0.059033804 -0.085226335 0.08091524
000230 33 08 99 bd 50 24 c1 3d 7e 55 c7 3d 63 06 b7 bc
       -0.07472267 0.09430754 0.09733103 -0.022341913
000240 d2 17 d1 3a 46 4d 56 bb b4 5c aa 3c 76 2f 48 3d
       0.0015952534 -0.0032699867 0.020796157 0.048873387
000250 c8 6a a2 bd e3 92 ab bc 47 f4 57 3d 49 ea ae bd
       -0.07930523 -0.020944064 0.052723195 -0.0854078
000260 99 8c e7 bd cc 06 7f bd 25 f6 e3 bd 15 02 60 3c
       -0.11306114 -0.06226234 -0.11130933 0.013672371
000270 76 d4 2d bd 83 32 a1 bd 24 c4 0b 3c 89 9b 83 bd
       -0.042438947 -0.078709625 0.00853065 -0.0642615
000280 ff f9 a9 bd 93 9f a3 bc 72 14 ae bd 0e 60 da 3c
       -0.08299636 -0.019973552 -0.084999934 0.02665713
000290 57 85 7a bb 78 4e 8f 3b ed ff bb 3d a4 7c 58 bc
       -0.003822645 0.004373368 0.09179673 -0.01321331
0002a0 77 0e 53 3d a0 c4 b0 3c 24 28 c6 3d a9 bd d6 bd
       0.051527467 0.021578133 0.09675625 -0.104853936
0002b0 0c 0c 55 bd b6 52 3c bd 1b e0 a4 bd 2c 42 e9 3c
       -0.052013442 -0.045977317 -0.08050557 0.028473936
0002c0 2a 22 ca bd 99 a8 c6 bb 1b 4d 25 bd 5e 61 0d bb
       -0.098697975 -0.006062579 -0.040356737 -0.0021572928
0002d0 9c 34 f1 ba cf f7 95 3d 76 8e a1 38 ef f0 8d bc
       -0.001840252 0.07322656 7.703614e-05 -0.0173268
0002e0 be f7 b8 3c 7d 60 42 3c a9 fe 8f 3d 23 27 d2 3d
       0.02257907 0.011863825 0.070309944 0.10261371
0002f0 e3 a4 26 bd 9b 37 8f bc 21 00 67 3d 95 63 00 3c
       -0.040684592 -0.01748257 0.056396607 0.007836242
000300 46 35 97 ba 45 4c 33 bd e8 59 01 bd 12 d2 87 bd
       -0.0011536262 -0.04377391 -0.031579882 -0.066318646
000310 a8 c6 e4 bd dd 32 81 bd 65 ca 8d bc 7e 63 15 bd
       -0.11170703 -0.063085295 -0.017308423 -0.036471836
000320 bc 46 05 bc 40 9b 9c 3c 40 ea 1a bd 5d 55 03 bd
       -0.00813454 0.019116998 -0.037821054 -0.03206383
000330 8c 92 e7 3c ef 4e 82 3c db 53 20 bd ff 70 e1 3b
       0.028268121 0.01590678 -0.03914247 0.0068799253
000340 c6 29 2a 3d 36 f7 a8 bd 73 3e 5f 3d b5 20 ee bc
       0.041543745 -0.08250277 0.054502916 -0.02906833
000350 b6 d1 b6 bd 51 3b 77 3d a4 23 a2 3c b9 85 98 3d
       -0.08926718 0.060359303 0.019792385 0.074473806
000360 d2 dc 0d bc 59 3f a1 bd 51 49 8b bd ed 9c 0e bd
       -0.008658605 -0.07873411 -0.06801093 -0.034817625
000370 e8 b7 13 bb 87 fd 90 bd 7c eb cf 3c de df c2 3d
       -0.0022540037 -0.070796065 0.025380842 0.095153555
000380 70 00 b6 bd d9 3a 0c bd cf 87 29 bc ae 2c 9c 3c
       -0.08886802 -0.03423581 -0.010347321 0.019064274
000390 bc 7d 9c bc 32 b2 79 3c e6 19 c4 3d c0 16 8a 3b
       -0.019102924 0.015240239 0.09575252 0.004214138
0003a0 b2 56 c2 3d 87 64 81 3d e5 1b 80 bd 48 8a 94 bd
       0.09489192 0.06318002 -0.062553205 -0.072529376
0003b0 7f 7e 02 3d 51 c9 fb 3d 1c 8e 65 3d 92 ad 0e bd
       0.031858917 0.122942574 0.05604373 -0.0348335
0003c0 bd b0 72 3d 48 f0 f4 bb a1 07 f9 bc 83 f0 07 3d
       0.059250582 -0.007474933 -0.030399146 0.033188354
0003d0 19 de 1e bd 5e 83 12 bd 75 07 ba 3d 0e 37 a8 bd
       -0.038786028 -0.035769813 0.090834536 -0.08213626
0003e0 6e 67 88 3b 66 8b 29 bd 1d 4e 82 bd 43 22 ad 3c
       0.0041627204 -0.041392706 -0.06362555 0.021134501
0003f0 fd b9 91 bd 0c bc 0c bc 18 1e 71 bd a0 ab 8a 3d
       -0.071155526 -0.008589756 -0.05886659 0.06771016

fc2.bias f4 [84]
000000 a1 39 9f 3d e4 73 86 3d 02 79 da bc 12 44 00 3e
       0.07774664 0.06565073 -0.02666903 0.12525967
000010 b3 de c9 3d a4 ea 5e 3d f7 03 47 bd 2f 32 b1 3d
       0.0985693 0.05442299 -0.048587766 0.0865215
000020 c1 f1 83 3d ca b8 0f 3d a7 11 27 3d f0 2a 7a 3d
       0.06442595 0.035088338 0.04078832 0.061076105
000030 99 84 a8 bd 84 32 f3 bc dd de ad 3d c9 df 36 3d
       -0.08228416 -0.029687174 0.084897734 0.044647012
000040 30 82 33 bc b6 c5 c7 bc 82 e5 44 3d 47 54 00 3e
       -0.010956332 -0.024386268 0.04807044 0.1253215
000050 d8 76 de 3d 42 06 1f bd 05 08 76 3d 10 f9 af 3d
       0.108625114 -0.038824327 0.06006624 0.08592427
000060 cf 39 78 3d 69 ed 68 3d 8d 15 03 3e bf c5 67 3d
       0.060602006 0.056867037 0.1280119 0.05658507
000070 a5 20 26 3d b0 42 f9 3c 15 af cb 3c 88 8d 3a bd
       0.040558476 0.030427307 0.024863759 -0.04554513
000080 59 da b1 bd 17 8a 8b 3d 3f 07 d7 3d 8c df 9b 3d
       -0.08684225 0.06813448 0.10499429 0.076109976
000090 b4 ac a8 3d 47 df 72 3d 3e 77 fa 3c 57 07 bf 3d
       0.082360655 0.059294965 0.030574437 0.09327572
0000a0 60 c2 9c bc 3b ca 80 bd 6d 3e 4b bc b3 36 90 bd
       -0.019135654 -0.062885724 -0.01240502 -0.07041683
0000b0 7c 63 ed 3d 33 e4 01 3c f1 6d 6a 3d 44 18 74 3d
       0.11591241 0.007927942 0.057233755 0.059593454
0000c0 c1 ac 72 bd 5b 43 5b bd 6e f9 26 3d af 99 e8 3d
       -0.059246782 -0.053531032 0.04076522 0.11357438
0000d0 2a 73 00 3d b3 7d ca 3b c7 ae 80 bd bc 08 e6 3c
       0.03135983 0.0061795353 -0.06283336 0.028080337
0000e0 f7 da a2 bd 25 f9 ab bc c3 66 fb 3d b2 04 72 3d
       -0.079519205 -0.020992825 0.122754596 0.05908651
0000f0 dc 92 ce bc 30 ec 5d 39 a2 bc 14 bd 89 2a 1e 3c
       -0.025216512 0.00021164189 -0.036312707 0.009653696
000100 ef d2 47 bd 9f b5 86 bd 4f 8e a7 3d 8c f9 27 bc
       -0.048785146 -0.0657761 0.0818144 -0.010252368
000110 72 63 3a 3b 74 1c a5 3d 2b b5 b5 bd a4 0b b6 3c
       0.0028440622 0.08062068 -0.08872446 0.022222348
000120 3b c0 e0 3d 1b 73 1d bd 89 35 a0 3d d3 7d f9 bc
       0.10974165 -0.03843985 0.07822711 -0.030455505
000130 f6 f5 7d bd 21 df 84 bc df d0 6c bd 7b ef b3 bd
       -0.062002145 -0.016219677 -0.057816382 -0.08785912
000140 9c a8 14 3c 78 92 ae bd c9 3a 97 3d be e2 f1 3a
       0.009073403 -0.085240304 0.07384259 0.0018454415

fc3.weight f4 [2, 84]
000000 75 f2 7c bd 84 17 8b be f3 35 69 bd e6 c7 fe 3e
       -0.061754663 -0.27166378 -0.056936216 0.49761885
000010 bf f4 0d be a3 77 01 3f 5b f6 9c bd 94 d4 a2 3d
       -0.13862894 0.50573176 -0.07664176 0.07950702
000020 b9 6d 23 be fb 67 7f be a4 cd b2 3e 19 25 8b be
       -0.15959825 -0.24942009 0.34922516 -0.2717674
000030 cd 08 eb 3b 85 23 7e 3e 36 53 e8 3e 6b 41 53 3e
       0.00717268 0.24818237 0.45375985 0.20630424
000040 be 4d 49 bd 5b 28 55 be a3 74 60 3e 2f c4 c3 be
       -0.049146406 -0.20816176 0.21919493 -0.38235614
000050 73 aa d2 3e b4 4d c0 bd ce 96 4a bc c2 31 57 bd
       0.41145667 -0.09389821 -0.012365056 -0.052537687
000060 40 f3 87 bd c7 84 9b 3d 72 a2 83 be 1a e5 98 3c
       -0.06638193 0.07593685 -0.25709873 0.018663932
000070 ea 86 b9 3a 16 b0 54 be fd bd f3 bd dd fd bb bd
       0.0014154587 -0.20770296 -0.11901472 -0.0917928
000080 12 da d1 3c 62 96 a5 bd ad dd 72 be 26 79 37 be
       0.02561668 -0.08085324 -0.23717375 -0.17917308
000090 93 35 28 be b9 09 70 bd bf f5 ec be 52 3f de be
       -0.16426687 -0.058603022 -0.4628124 -0.43407685
0000a0 8a df 82 bd 9f 0d 39 bd 45 a1 b7 3e 40 58 68 bd
       -0.06390293 -0.045179006 0.35865226 -0.056724787
0000b0 81 50 d6 3e fd b5 0f 39 a7 7b 49 3e 6c 35 48 bd
       0.41858295 0.00013705339 0.19676076 -0.048879072
0000c0 1a 2b c1 bc 70 7e 4d 3b b1 24 8a be bf 9a 94 3e
       -0.023580123 0.003135588 -0.26981118 0.29024312
0000d0 05 ad 4c be 5f bb 01 bd dc 3b 61 bb 1f 96 3f bd
       -0.19987877 -0.03167283 -0.0034367954 -0.046774026
0000e0 89 73 4e 3d 5c 68 5b be a3 df 02 bf e1 c1 8e bd
       0.05040315 -0.21426529 -0.5112249 -0.06970573
0000f0 d1 34 d3 3d df c0 59 3e 04 88 f0 bc 52 b7 cb 3c
       0.10312808 0.2126498 -0.029361732 0.024867687
000100 d0 fb a9 3d 2e be 75 3d 6b 51 55 bd 36 13 42 bd
       0.082999825 0.059995823 -0.0520796 -0.047381602
000110 2a db 69 be 23 79 9f be 1a 1d a1 bd 5b 9d 9c bc
       -0.2283751 -0.31147107 -0.07866879 -0.019118002
000120 29 96 c0 3e 72 33 aa 3d 25 7a 27 be 26 db 41 be
       0.37614563 0.08310594 -0.16355188 -0.18931255
000130 16 7e 36 bd 58 82 30 3d 5e a3 96 3c d9 62 a7 3d
       -0.04455384 0.043093055 0.018388446 0.081731506
000140 5d 0f 6f bd 88 3a d1 bc 76 63 a5 be b0 0e 52 3e
       -0.05836426 -0.025540605 -0.32302445 0.20513415
000150 e2 de d6 3c d9 e0 4a 3e dc 10 32 3c a0 4a f4 be
       0.026229326 0.19812335 0.010868277 -0.47713184
000160 c5 c0 8b 3e 82 77 02 bf f5 bc c3 3b 21 b2 82 be
       0.2729551 -0.50963604 0.005973453 -0.25526527
000170 45 8c c4 3c a4 ba 92 3e 28 44 8d be 3a b0 38 3e
       0.023992667 0.2865802 -0.27591062 0.18035975
000180 54 20 9b 3d 26 c2 43 be f1 19 e4 be 73 9d f3 bd
       0.075745255 -0.1911703 -0.44551042 -0.118952654
000190 f9 fc 51 3c a9 0d 44 3e 6d a7 66 be a9 4a f5 3e
       0.012816661 0.19145836 -0.22524805 0.47908524
0001a0 f4 24 cd be 31 f2 c0 bd 58 33 94 3b 37 84 fe 3d
       -0.40067255 -0.09421194 0.004522722 0.12427562
0001b0 3e 2b a4 bd ee 9a 2d be a9 a3 6a 3e 1f b0 89 3d
       -0.0801606 -0.16953632 0.22913994 0.067230456
0001c0 77 bd 45 3b 0c da a9 3d c0 19 55 3e 90 68 86 3d
       0.0030172744 0.08293542 0.20810604 0.065629125
0001d0 ae 52 c5 3d 93 7f dc 3c ed 37 99 3e 84 1b fa 3d
       0.096349105 0.0269163 0.2992548 0.122122794
0001e0 69 a0 16 3e 5f 7a 80 bc 0f e6 eb 3e 65 b8 f4 3e
       0.14709629 -0.015683351 0.46073958 0.47796932
0001f0 bd 8c 6d bc e0 94 56 3d 76 d5 cb be 22 69 9c 3d
       -0.014498887 0.052388072 -0.39811295 0.0763724
000200 c7 fa c2 be 3c 28 2b bd 1d ed a7 be c5 98 00 3e
       -0.38081953 -0.041786417 -0.3279809 0.12558277
000210 20 fd c9 3d f0 a3 90 bc fb 90 a2 3e 1f 42 3a be
       0.09862733 -0.017656296 0.31751236 -0.18189286
000220 16 73 00 3e 3e 9f 9e 3c ea 85 0c bd d5 47 1e 3e
       0.12543902 0.019363042 -0.034307398 0.15457089
000230 28 29 0a be 23 1a 4c 3e 25 eb fe 3e 37 1e 93 bd
       -0.13492262 0.19931845 0.49788776 -0.071834974
000240 2a 62 04 3d 74 cf 3c be 40 41 a1 ba 51 d3 ce 3b
       0.03232018 -0.18438512 -0.0012302771 0.006311812
000250 82 81 05 bd 1f d2 7c bd e5 ea ea 3d 17 56 68 3d
       -0.03259421 -0.061723825 0.11470584 0.056722727
000260 3a a0 ca 3d 1e fc 74 3e 61 d0 b0 bd e2 39 29 bc
       0.09893842 0.239243 -0.08633495 -0.010328742
000270 4b 70 c7 be a9 29 09 3d 7a b9 7e 3e 7f 14 06 3e
       -0.3895286 0.033486996 0.24875441 0.13093756
000280 3b a1 86 bd 30 93 2c 3d 07 09 98 bd 68 42 86 3b
       -0.06573721 0.042132556 -0.07423597 0.0040972717
000290 ad ae 2c bd ef 77 df 3c 3f 05 6a 3e c5 4a f3 bd
       -0.04215877 0.027278868 0.22853564 -0.118794955

fc3.bias f4 [2]
000000 16 83 a2 bc 4c 43 8e bd
       -0.019837897 -0.069464296
