Face_Classifier/model_v0.pth (torch, 332095 bytes, 10 tensors)

conv1.weight f4 [6, 1, 5, 5]
0.01756365 0.011148111 0.0063689095 0.08719463 0.19924799 0.27484146 0.1836388 0.38137946
0.35970515 0.26867738 0.2445283 0.3730327 0.32142693 0.36914816 0.18184632 0.2558894
0.1974533 0.096427634 0.10640447 -0.010489394 -0.4659712 -0.45682567 -0.51800674 -0.33589518
-0.43050054 -1.068423 -0.54513854 -0.46995685 -0.23691417 0.5535122 -0.3217878 -0.3505472
-0.18641189 0.20503801 0.6504748 -0.39261785 -0.2888587 -0.045525573 0.1829682 0.7561501
-0.10079771 -0.26975718 0.10698229 0.4259117 0.59013116 -0.08519481 0.06561972 0.2506085
0.47746924 0.24554746 -0.12256251 -0.1125884 -0.07814102 -0.015191346 -0.18894716 -0.14704849
-0.05146923 -0.1975564 0.045181066 0.091306575 -0.10918139 -0.06868854 -0.13177048 0.17781878
-0.02018947 -0.04415141 0.011335754 0.1393016 -0.17753603 -0.14404167 0.017884452 -0.08856503
0.0028532855 -0.14144623 -0.033670958 -0.9437692 -1.4514165 -1.5325327 -1.1963013 -0.34119514
-0.23982097 -0.30680218 -0.42412916 -0.039397087 0.29716948 1.0689813 1.1869074 0.8714609
0.80737704 0.44498783 0.40772074 0.4071608 0.47983813 0.40638694 0.49416843 -0.051708493
-0.27165943 -0.067075565 -0.18863778 0.1113849 -0.44923422 0.31640732 0.08321102 -0.7434614
-0.46687117 0.017015984 0.37157708 -0.15765369 -0.88541627 -0.91344583 0.26893345 0.46271533
0.5098611 -0.13135001 -0.53396213 -0.20605293 0.21464919 0.41280764 0.37049207 0.060588576
0.20183939 0.17771582 0.2912349 0.24020042 0.032324955 -0.23280226 0.3085536 -0.37597504
-0.42213959 -0.052333497 -0.41728002 -0.006967594 -0.53736115 -0.4444367 -0.11550849 -0.24543296
-0.3201228 -0.13365799 -0.6756447 -0.51134187 0.43265656 0.4609335 0.048016954 -0.2943821
-0.6164018 0.7166992 0.7090738 0.44055662 0.8524683 0.52117467
00000000: a5e1 8f3c 91a6 363c 49b2 d03b 1993 b23d
00000010: aa07 4c3e 05b8 8c3e cf0b 3c3e 2b44 c33e
00000020: 462b b83e 1590 893e a065 7a3e 24fe be3e
00000030: 1292 a43e fd00 bd3e ec35 3a3e ef03 833e
00000040: 3331 4a3e da7b c53d 96ea d93d b5db 2bbc
00000050: c793 eebe 0ee5 e9be 179c 04bf 74fa abbe
00000060: 916a dcbe 16c2 88bf 338e 0bbf 2f9e f0be
00000070: a199 72be fab2 0d3f 5fc1 a4be ec7a b3be
00000080: c2e2 3ebe 7cf5 513e 8485 263f 3505 c9be
00000090: 4ae5 93be 0679 3abd 045c 3b3e 0e93 413f
000000a0: 086f cebd 9d1d 8abe 8819 db3d 1911 da3e
000000b0: d612 173f 9e7a aebd a263 863d c24f 803e
000000c0: d976 f43e cb70 7b3e 0e02 fbbd bf94 e6bd
000000d0: 6608 a0bd 20e5 78bc 5d7b 41be e193 16be
000000e0: 66d1 52bd 3a4c 4abe c80f 393d f1fe ba3d
000000f0: 7e9a dfbd 94ac 8cbd d7ee 06be 2016 363e
00000100: 6364 a5bc 1cd8 34bd 99b9 393c 14a5 0e3e
00000110: 01cc 35be a97f 13be 6a82 923c 9561 b5bd
00000120: 30fe 3a3b 48d7 10be 8fea 09bd dc9a 71bf
00000130: 04c8 b9bf 082a c4bf 6720 99bf 21b1 aebe
00000140: a193 75be 2d15 9dbe 7527 d9be d75e 21bd
00000150: 9926 983e 61d4 883f 95ec 973f 1018 5f3f
00000160: 43b0 4e3f 72d5 e33e c6c0 d03e 6177 d03e
00000170: 58ad f53e f311 d03e a503 fd3e 49cc 53bd
00000180: f216 8bbe ea5e 89bd 432a 41be c41d e43d
00000190: 0702 e6be 2400 a23e 8a6a aa3d 7c53 3ebf
000001a0: bd09 efbe 1b65 8b3c 5a3f be3e f86f 21be
000001b0: a4aa 62bf 96d7 69bf a5b1 893e 06e9 ec3e
000001c0: 4286 023f 9e80 06be beb1 08bf 8aff 52be
000001d0: ffcc 5b3e 865b d33e 23b1 bd3e ba2b 783d
000001e0: fcae 4e3e 23fb 353e be1c 953e 19f7 753e
000001f0: 2c67 043d b763 6ebe bdfa 9d3e cd7f c0be
00000200: ae22 d8be a65b 56bd baa5 d5be 6a50 e4bb
00000210: 8090 09bf 358d e3be b78f ecbd c752 7bbe
00000220: 23e7 a3be a4dd 08be 0df7 2cbf 4de7 02bf
00000230: 2985 dd3e 7aff eb3e 6dad 443d 40b9 96be
00000240: 82cc 1dbf 9979 373f dc85 353f a390 e13e
00000250: 5d3b 5a3f b46b 053f

conv1.bias f4 [6]
-0.30281168 0.034819428 -0.12194008 0.11789393 0.22346684 -0.1708201
00000000: 220a 9bbe d19e 0e3d b8bb f9bd 5f72 f13d
00000010: 7ed4 643e 77eb 2ebe

conv2.weight f4 [16, 6, 5, 5]
0.067611195 0.06415246 -0.15332574 -0.11338936 0.10436208 -0.012026739 -0.25143406 -0.114660144
-0.07098087 0.026698671 0.40413666 0.39691812 0.38684502 0.19942348 0.019290837 -0.30975497
-0.21190402 -0.19905272 -0.16010647 0.07438616 -0.14027435 0.0030159869 0.088258535 0.15388426
0.15731587 0.14910662 -0.14074878 0.24584687 0.3671911 -0.04510909 0.19708735 0.018490203
0.014932041 0.2877055 0.04320196 0.0006493419 -0.18487556 -0.29996333 0.08114873 0.006978742
-0.2075051 -0.25830635 -0.29551908 0.06333287 -0.06837926 0.06300944 -0.0042924676 0.094165795
0.06480381 -0.15122844 -0.058502678 0.0074995533 0.055014953 -0.055889856 -0.028349068 0.030019961
0.07190562 -0.061450735 0.025436187 -0.033399835 -0.007489642 0.06446047 -0.041110493 0.04085185
0.05163021 0.050594643 0.016546652 0.030567676 -0.04599537 0.043379847 -0.02262927 0.06217296
-0.043592338 0.022255853 0.0010658036 0.05518354 0.036111943 0.012758158 -0.3591695 -0.17150748
0.10094379 -0.21147236 0.04830041 -0.072268374 -0.32808816 0.08703433 0.01417098 0.116530575
-0.09948772 -0.101140745 -0.2353137 -0.65978724 -0.39905316 0.06549566 0.08983946 0.62626797
0.58596796 0.6220606 0.36908638 -0.16731104 0.05657103 0.2425043 -0.025922239 0.014381627
0.06489478 0.015935156 0.13538426 0.23385583 -0.03184901 -0.09364901 -0.09713897 -0.03890615
0.009534557 0.05602285 0.12733279 -0.20291798 -0.12078996 0.07325202 0.06008726 -0.010888595
-0.10542683 0.029245818 -0.15224323 -0.17664257 -0.07197957 -0.048836928 -0.020889403 0.04667564
-0.13361545 -0.061435994 -0.07544425 -0.011690496 0.102780856 -0.05623209 -0.049116757 -0.047953583
-0.07846032 0.052947585 0.14133185 0.026731431 -0.14267935 -0.19801973 0.052025646 0.08065696
0.037532903 -0.32658038 -0.3075403 -0.2060924 -0.078572825 -0.12669425 0.08372888 0.2714844
0.29550496 0.39732435 0.4207994 0.08381568 0.1363356 0.23755817 0.2558234 0.32891446
0.0021308416 0.07462813 -0.13676316 -0.013523054 -0.020506777 -0.2455495 -0.19487844 -0.27779734
-0.39695558 -0.091901384 -0.23541172 -0.25126573 -0.27248523 -0.19853044 -0.21160096 0.14856416
0.23614727 0.032237973 -0.02909571 -0.07224 0.08984589 0.023694575 -0.05533274 -0.23015995
-0.07067154 0.15846221 -0.0076141846 -0.19342184 -0.07991896 -0.028083565 0.24704859 -0.118557945
-0.18857995 0.007891179 0.004407974 0.1341439 -0.048749607 -0.1902582 0.0645449 0.03346364
0.032439515 0.080643535 -0.034621075 0.0018430501 -0.044779304 -0.019896394 0.042241238 -0.0078270435
-0.035924543 -0.058669187 -0.028663095 -0.03478033 0.018814344 0.0075865714 -0.07644424 -0.0063028
-0.06416147 -0.028069118 -0.04325547 0.06876764 0.06243375 0.043455414 -0.020479966 0.0655664
0.05691442 -0.12395763 -0.029402811 0.026286962 0.0012601857 -0.019049698 0.045233462 -0.17014222
-0.04915572 -0.051333822 0.08784041 0.048958447 0.20961593 0.12138293 0.07163872 0.12602337
0.07856156 -0.07815804 -0.10195848 0.1009458 0.1602193 -0.026666937 -0.14211479 0.099398986
0.05967893 -0.0051061925 -0.012398368 -0.13689676 -0.1383252 -0.14996576 -0.1487663 -0.039458822
00000000: bd77 8a3d 5d62 833d 6c01 1dbe ae38 e8bd
00000010: c9bb d53d cd0b 45bc f7bb 80be f0d2 eabd
00000020: 6b5e 91bd 2cb7 da3c 00eb ce3e da38 cb3e
00000030: 8d10 c63e ab35 4c3e d107 9e3c 3498 9ebe
00000040: 5efd 58be 7ad4 4bbe f3f2 23be c557 983d
00000050: 14a4 0fbe dda7 453b e4c0 b43d d693 1d3e
00000060: 6917 213e 68af 183e 7320 10be 48bf 7b3e
00000070: 7900 bc3e 4fc4 38bd 44d1 493e c478 973c
00000080: 85a5 743c 234e 933e 8af4 303d 9938 2a3a
00000090: 0550 3dbe cb94 99be 4e31 a63d eead e43b
000000a0: 387c 54be bb40 84be 474e 97be aab4 813d
000000b0: 6d0a 8cbd 180b 813d d4a7 8cbb ffd9 c03d
000000c0: dcb7 843d a1db 1abe 81a0 6fbd d0be f53b
000000d0: 5c57 613d c3ec 64bd 4e3c e8bc 6cec f53c
000000e0: 4143 933d c4b3 7bbd 8d5f d03c 44ce 08bd
000000f0: ac6b f5bb da03 843d 7a63 28bd 4554 273d
00000100: 337a 533d 543c 4f3d d88c 873c 1069 fa3c
00000110: a465 3cbd 11af 313d 0561 b9bc 13a9 7e3d
00000120: e18d 32bd e851 b63c 6fb2 8b3a 2308 623d
00000130: 1eea 133d 9807 513c 11e5 b7be a89f 2fbe
00000140: 9ebb ce3d 368c 58be a7d6 453d 7101 94bd
00000150: 2cfb a7be 0e3f b23d 662d 683c 95a7 ee3d
00000160: 38c0 cbbd e122 cfbd 13f6 70be d1e7 28bf
00000170: b250 ccbe 9722 863d c0fd b73d 1953 203f
00000180: ff01 163f 5d3f 1f3f e4f8 bc3e 9653 2bbe
00000190: 06b7 673d 0c53 783e e05a d4bc eaa0 6b3c
000001a0: 8ee7 843d 728a 823c 2ca2 0a3e e777 6f3e
000001b0: 1c74 02bd 0dcb bfbd ccf0 c6bd 0e5c 1fbd
000001c0: d536 1c3c 3778 653d 8763 023e bbc9 4fbe
000001d0: ba60 f7bd 2805 963d 0f1e 763d 1466 32bc
000001e0: 06ea d7bd ed94 ef3c a6e5 1bbe cae1 34be
000001f0: 066a 93bd 3b09 48bd 4120 abbc f52e 3f3d
00000200: 7dd2 08be 4fa4 7bbd 8482 9abd 7e89 3fbc
00000210: c57e d23d 9f53 66bd a72e 49bd fa6a 44bd
00000220: ceaf a0bd 91df 583d 4cb9 103e e0fb da3c
00000230: 891a 12be afc5 4abe d818 553d 7a2f a53d
00000240: 1abc 193d 8b35 a7be ec75 9dbe e309 53be
00000250: caea a0bd 23bc 01be 0c7a ab3d 0100 8b3e
00000260: 6d4c 973e 196e cb3e 0573 d73e 8ea7 ab3d
00000270: 8f9b 0b3e 7342 733e 49fb 823e 7a67 a83e
00000280: 97a5 0b3b a2d6 983d a40b 0cbe cd8f 5dbc
00000290: d4fd a7bc 5471 7bbe 378e 47be 743b 8ebe
000002a0: c33d cbbe cb36 bcbd c50f 71be e7a5 80be
000002b0: 2f83 8bbe 904b 4bbe ecad 58be 3421 183e
000002c0: 97d0 713e f70b 043d 205a eebc 91f2 93bd
000002d0: 1f01 b83d 201b c23c 95a4 62bd 0daf 6bbe
000002e0: 3ebc 90bd eb43 223e 6980 f9bb 6010 46be
000002f0: 8dac a3bd 810f e6bc 4efa 7c3e 82ce f2bd
00000300: 1a1b 41be 014a 013c c470 903b 055d 093e
00000310: abad 47bd 0cd3 42be 1e30 843d 2b11 093d
00000320: 4cdf 043d 7028 a53d d4ce 0dbd 8092 f13a
00000330: 816a 37bd c3fd a2bc 2605 2d3d 003d 00bc
00000340: 9d25 13bd 1a4f 70bd dece eabc d275 0ebd
00000350: 8a20 9a3c c698 f83b cc8e 9cbd b887 cebb
00000360: 1767 83bd 35f1 e5bc a62c 31bd 0cd6 8c3d
00000370: 88ba 7f3d 4efe 313d 9ac5 a7bc ad47 863d
00000380: 181f 693d 7fdd fdbd 2ade f0bc c157 d73c
00000390: d12c a53a 1d0e 9cbc b946 393d c339 2ebe
000003a0: 8257 49bd 6a43 52bd ace5 b33d a788 483d
000003b0: 8fa5 563e 9d97 f83d 52b7 923d 450c 013e
000003c0: e2e4 a03d 5311 a0bd 9ccf d0bd acbc ce3d
000003d0: 8710 243e 9f74 dabc 8a86 11be b291 cb3d
000003e0: e571 743d d951 a7bb 8622 4bbc aa2e 0cbe
000003f0: 1fa5 0dbe a090 19be 3156 18be 939f 21bd

conv2.bias f4 [16]
-0.25330716 -0.3566245 0.025289146 0.567463 -0.70484626 -0.08919894 0.41131988 0.9535505
0.029179646 0.19811209 0.26483458 -0.2505715 -0.20235239 0.15628813 0.05918344 -0.013740836
00000000: 7ab1 81be 7d97 b6be 2f2b cf3c 4145 113f
00000010: ce70 34bf efad b6bd 8598 d23e e31b 743f
00000020: 270a ef3c e5dd 4a3e 6698 873e e84a 80be
00000030: 7735 4fbe ff09 203e 566a 723d 3e21 61bc

fc1.weight f4 [120, 576]
0.050314415 0.10614838 0.007266551 -0.07080056 0.088333435 0.059170164 -0.042824067 -0.022709846
-0.07573614 0.008299081 0.051473774 0.0008701155 -0.040406384 0.036707796 0.036137406 0.041970894
-0.018366208 0.031477917 -0.057448525 0.01440288 0.13840915 0.06636451 -0.016258031 -0.07610193
-0.0696659 0.06471033 0.07030984 0.018250758 -0.0006636713 -0.054749124 -0.1256149 -0.076071516
0.071798675 0.063217334 0.01842842 -0.043106873 0.07373508 0.055198353 0.048613217 0.11249756
-0.08314516 -0.22418204 0.027298762 -0.028212704 0.08296427 0.0583747 -0.042963285 -0.15146784
-0.07696296 -0.047601633 0.0085807545 -0.04258212 0.037589986 -0.016075766 -0.0764669 -0.032891132
-0.026495732 -0.038478907 -0.012584978 -0.053084623 -0.010560672 0.033229668 0.045417354 -0.05376065
-0.00921246 -0.06417386 0.06276951 0.05908648 -0.021499995 0.008372588 -0.029304082 -0.07787391
-0.026091754 -0.0010232389 -0.006391572 -0.0441813 0.015110154 0.053135604 -0.024355803 -0.03897546
-0.0019367437 0.007347142 -0.03479722 0.003809491 -0.05964825 0.004302348 -0.014961358 -0.043054394
-0.02465088 0.026271697 -0.059878115 -0.034812704 -0.054297928 -0.020343376 -0.008912311 -0.046391234
-0.0216208 0.01113382 -0.023671633 -0.05243657 -0.03367481 -0.031644415 -0.02329521 0.004564511
0.022058697 -0.0092887 -0.008893737 0.022420974 -0.07227758 -0.051984992 0.023700707 0.03679355
-0.11231775 -0.005813087 -0.10530295 0.09598042 0.16286981 -0.072363995 -0.0050117173 0.08209324
-0.0626922 0.0064940616 -0.039802752 -0.07990289 0.072322965 0.06648077 -0.0045624566 -0.0046401443
-0.07761725 -0.035202235 0.07224876 0.016235866 -0.013727249 -0.0792865 -0.07958226 -0.012113073
0.03569551 -0.015011864 -0.038056936 -0.0940762 -0.071491905 0.017866641 0.034578916 0.10044823
0.012095726 0.0144093605 0.05211532 0.03757657 -0.005258662 -0.013952572 -0.06241972 -0.09912236
-0.118125185 0.008814358 0.095110215 -0.04400586 -0.05042946 -0.02373018 0.008213909 0.00032209267
0.013176903 -0.057224438 -0.040102087 -0.017238032 -0.050763737 -0.02689099 0.05579871 0.021552855
0.014744983 0.049300373 -0.049350735 0.00018589335 -0.05576229 -0.0869214 -0.026722342 -0.03674993
-0.05856537 -0.046920165 -0.060534474 -0.001461346 -0.042231645 0.06499322 0.012651545 -0.08469121
0.013477114 0.06820382 -0.03144268 0.02595766 -0.043229256 -0.08468801 -0.05471488 0.049453747
-0.047136493 0.05652092 -0.052346695 0.008686608 -0.0066170585 0.031693526 -0.07163913 -0.027029064
-0.043418914 0.02749712 -0.039791882 0.052306212 0.006936546 0.020653721 -0.08289847 -0.045884565
-0.052240714 0.042545415 -0.038575552 -0.09730837 -0.10132138 0.0012025364 0.12497426 0.09679664
-0.02535589 0.0069911997 -0.10203484 -0.017375125 0.14646214 0.14606541 -0.010033318 0.038570054
-0.042868454 -0.06699726 0.033080857 -0.009040159 -0.104324125 -0.048938755 -0.072159186 -0.07525624
-0.0052623656 0.0009085277 -0.11296059 -0.061391555 -0.0128401425 -0.006781617 -0.029454798 -0.03379244
-0.08466047 -0.08439936 -0.026832528 -0.01789409 -0.078445114 -0.052010268 0.0010461663 -0.0073056463
-0.020862894 -0.04422723 -0.03907345 -0.005541574 0.086000234 0.05752821 0.15947433 0.07338466
00000000: 7d16 4e3d 5264 d93d 3f1c ee3b e2ff 90bd
00000010: 29e8 b43d 6a5c 723d 4a68 2fbd 000a babc
00000020: 8d1b 9bbd def8 073c 2ad6 523d 7618 643a
00000030: 2a81 25bd ea5a 163d d104 143d ace9 2b3d
00000040: bb74 96bc fdee 003d 254f 6bbd 0ffa 6b3c
00000050: 21bb 0d3e 1eea 873d 902f 85bc 54db 9bbd
00000060: ffac 8ebd d986 843d 9bfe 8f3d 9d82 953c
00000070: 3afa 2dba 9e40 60bd 31a1 00be 62cb 9bbd
00000080: 2f0b 933d 1778 813d 33f7 963c d590 30bd
00000090: 6b02 973d ab17 623d a71e 473d 1f65 e63d
000000a0: 0248 aabd fa8f 65be a7a1 df3c 541e e7bc
000000b0: 2ce9 a93d 4f1a 6f3d 45fa 2fbd 631a 1bbe
000000c0: c29e 9dbd eef9 42bd 4b96 0c3c 976a 2ebd
000000d0: f5f7 193d 53b1 83bc ae9a 9cbd dab8 06bd
000000e0: 940d d9bc 0f9c 1dbd 3931 4ebc 436f 59bd
000000f0: ab06 2dbc d51b 083d 8c07 3a3d 2134 5cbd
00000100: dcef 16bc 966d 83bd 4d8d 803d aa04 723d
00000110: c220 b0bc 2e2d 093c 1d0f f0bc 5b7c 9fbd
00000120: 60be d5bc 331e 86ba 6470 d1bb 73f7 34bd
00000130: 9490 773c b8a4 593d d285 c7bc bba4 1fbd
00000140: 56da fdba 4bc0 f03b 8887 0ebd a7a8 793b
00000150: b951 74bd b6fa 8c3b 7c20 75bc ce59 30bd
00000160: a4f0 c9bc be37 d73c c142 75bd c497 0ebd
00000170: 8167 5ebd 27a7 a6bc f104 12bc bc04 3ebd
00000180: 1b1e b1bc a06a 363c 03eb c1bc bbc7 56bd
00000190: 99ee 09bd 939d 01bd 99d5 bebc e591 953b
000001a0: 71b4 b43c a22f 18bc 09b7 11bc 31ac b73c
000001b0: 4506 94bd 37ee 54bd fc27 c23c d5b4 163d
000001c0: d906 e6bd b57b bebb 13a9 d7bd 6291 c43d
000001d0: 58c7 263e 9333 94bd 5539 a4bb 8020 a83d
000001e0: c564 80bd 23cc d43b 3608 23bd 20a4 a3bd
000001f0: 101e 943d 1227 883d a980 95bb 5a0c 98bb
00000200: cbf5 9ebd 3830 10bd 28f7 933d 1401 853c
00000210: 41e8 60bc f660 a2bd 06fc a2bd e975 46bc
00000220: 7535 123d 52f4 75bc 97e1 1bbd 06ab c0bd
00000230: 596a 92bd 105d 923c 9fa2 0d3d cdb7 cd3d
00000240: 272d 463c 3d15 6c3c e076 553d e4e9 193d
00000250: db50 acbb 5499 64bc d2ab 7fbd aa00 cbbd
00000260: 9eeb f1bd 196a 103c 25c9 c23d 7d3f 34bd
00000270: 1f8f 4ebd cb65 c2bc a293 063c 8cde a839
00000280: f0e3 573c 2c64 6abd 1642 24bd c636 8dbc
00000290: a3ed 4fbd 7e4a dcbc 308d 643d 9d8f b03c
000002a0: f194 713c 30ef 493d ff23 4abd 5eec 4239
000002b0: 0067 64bd d903 b2bd d0e8 dabc 1887 16bd
000002c0: 3ee2 6fbd 5c2f 40bd fff2 77bd a38a bfba
000002d0: 17fb 2cbd 2a1b 853d 6d48 4f3c 9672 adbd
000002e0: 1dcf 5c3c 72ae 8b3d 0aca 00bd 29a5 d43c
000002f0: 2911 31bd e870 adbd b61c 60bd 0390 4a3d
00000300: 3212 41bd 7b82 673d 7d69 56bd 4652 0e3c
00000310: e9d3 d8bb 12d1 013d 89b7 92bd 0e6c ddbc
00000320: 08d8 31bd a441 e13c d0fc 22bd 0a3f 563d
00000330: f74b e33b fe31 a93c acc6 a9bd 74f1 3bbd
00000340: 5cfa 55bd 1a44 2e3d 6601 1ebd 9c49 c7bd
00000350: 9581 cfbd 6d9e 9d3a 81f2 ff3d 513d c63d
00000360: 28b7 cfbc 6f16 e53b a4f7 d0bd 4756 8ebc
00000370: 2cfa 153e 2c92 153e c962 24bc a2fb 1d3d
00000380: d596 2fbd dc35 89bd cb7f 073d 2d1d 14bc
00000390: e3a7 d5bd 0174 48bd 32c8 93bd f21f 9abd
000003a0: ec6f acbb 432a 6e3a e257 e7bd b675 7bbd
000003b0: 765f 52bc 5438 debb 304b f1bc f169 0abd
000003c0: 7862 adbd 92d9 acbd e4cf dbbc a096 92bc
000003d0: d5a7 a0bd b808 55bd 841f 893a 3464 efbb
000003e0: a9e8 aabc 9d27 35bd 7b0b 20bd 1896 b5bb
000003f0: e420 b03d b3a2 6b3d 3d4d 233e b24a 963d

fc1.bias f4 [120]
-0.08087476 -0.05418362 0.044236973 0.05942688 -0.0042137248 0.01635969 -0.0253396 -0.06071427
0.04392593 0.052211013 0.23580503 -0.064456016 -0.048641786 0.07467185 0.02172703 -0.008014628
-0.039439086 0.07156832 0.08715479 -0.023563422 0.19972369 0.23530856 0.00033525904 -0.0722372
0.35236037 0.13158867 -0.011167767 -0.0892655 -0.023640191 -0.09358502 0.120691225 -0.06517352
0.0089238295 -0.008254174 0.026076196 -0.039413124 -0.035225783 -0.03418992 0.02699435 0.076810434
0.036402136 -0.105983324 -0.10348611 -0.111086525 -0.061034977 0.13060352 -0.052696344 -0.011979142
0.09066788 -0.005555135 -0.066798806 0.016537527 -0.023378067 -0.0019196417 0.022467885 0.2931862
0.13892293 0.008518233 0.21753374 0.26374552 0.2418367 0.238595 -0.18477145 0.04474
-0.01510897 0.0726517 -0.0017631633 0.02906233 0.22896768 -0.1282533 -0.0899956 -0.035375357
0.09610935 -0.0037205953 -0.059006866 0.072279476 -0.0073815472 -0.016702864 0.034848355 0.20793922
-0.013028569 0.13524218 0.17383961 0.18801725 0.0721654 0.020934528 -0.07341253 -0.1043029
0.07981038 0.0063187196 0.055980586 0.012996946 0.07925948 -0.10789838 0.01417306 0.2388067
0.0066412585 -0.18829948 0.17832054 -0.13590379 -0.007966215 -0.030382663 -0.034535475 -0.005793925
-0.079073444 -0.011985851 0.05823932 0.12962298 -0.10533013 0.2863063 -0.048039258 -0.028622609
0.065900356 -0.020568695 -0.08470989 0.09053953 -0.051495846 -0.06642984 0.058862053 0.116239816
00000000: aba1 a5bd a5ef 5dbd d431 353d 9a69 733d
00000010: 4913 8abb c204 863c fe94 cfbc 87af 78bd
00000020: adeb 333d 37db 553d e076 713e 8401 84bd
00000030: 9c3c 47bd 8eed 983d e2fc b13c c94f 03bc
00000040: e18a 21bd 6992 923d 367e b23d 1408 c1bc
00000050: 5e84 4c3e baf4 703e b5c5 af39 19f1 93bd
00000060: 9468 b43e 2ebf 063e 03f9 36bc d5d0 b6bd
00000070: 13a9 c1bc 81a9 bfbd f62c f73d b279 85bd
00000080: 4135 123c 843c 07bc bf9d d53c a86f 21bd
00000090: e948 10bd bb0a 0cbd 4123 dd3c ca4e 9d3d
000000a0: 681a 153d c90d d9bd 87f0 d3bd 5581 e3bd
000000b0: d0ff 79bd eebc 053e 1fd8 57bd 2a44 44bc
000000c0: 15b0 b93d da07 b6bb d0cd 88bd b579 873c
000000d0: 5c83 bfbc 7d9c fbba 920e b83c 801c 963e
000000e0: d041 0e3e 0f90 0b3c 2ac1 5e3e a709 873e
000000f0: 0aa4 773e 3f52 743e ba34 3dbe 4a41 373d
00000100: 9d8b 77bc 6aca 943d f119 e7ba 2014 ee3c
00000110: 8176 6a3e d554 03be 9d4f b8bd c0e5 10bd
00000120: fbd4 c43d 3bd5 73bb 2fb1 71bd 4307 943d
00000130: e8e0 f1bb 72d4 88bc 26bd 0e3d 05ee 543e
00000140: c775 55bc ed7c 0a3e 0303 323e 9887 403e
00000150: 74cb 933d e37e ab3c 4f59 96bd c29c d5bd
00000160: a073 a33d 430d cf3b e64b 653d 25f1 543c
00000170: cb52 a23d d3f9 dcbd 1f36 683c be89 743e
00000180: ea9e d93b 94d1 40be a999 363e 5d2a 0bbe
00000190: ba84 02bc 10e5 f8bc 1275 0dbd f7da bdbb
000001a0: 42f1 a1bd 4e60 44bc 5a8c 6e3d e3bb 043e
000001b0: 53b7 d7bd bd96 923e d0c4 44bd f679 eabc
000001c0: c4f6 863d ae7f a8bc 617c adbd ca6c b93d
000001d0: 4fed 52bd 5e0c 88bd 5619 713d 240f ee3d

fc2.weight f4 [84, 120]
0.04220793 0.065962695 -0.09527007 -0.048555262 0.018071616 -0.07970418 0.01380681 -0.043627594
-0.091829136 -0.08349174 0.014708623 0.10905621 -0.00038868992 0.03828356 -0.02826629 -0.029968968
-0.053547293 0.026690962 -0.020765735 -0.0069933133 -0.052186355 -0.119622484 0.06477217 0.05387427
-0.02099762 0.03656395 0.034712564 0.065726064 -0.067668155 0.09684833 -0.085486636 -0.02792095
0.053891864 -0.028335707 -0.043607138 -0.023966096 -0.0620629 0.01822778 0.03980514 -0.10094312
-0.07860667 -0.03929924 0.022652104 0.070148386 -0.030774195 -0.029230295 -0.07508514 0.1325383
0.0045812232 0.016460821 0.11688046 -0.042627946 0.015123185 -0.10079629 -0.07823455 -0.020962397
0.062793806 0.009773968 0.06972407 -0.053833727 -0.062671795 0.04647562 0.07540695 0.009091693
-0.0007829801 -0.07696141 0.059855875 0.050869368 -0.021996494 0.123499244 0.03992565 -0.052845713
0.04179429 -0.027861115 0.05717296 -0.017697163 0.033111125 0.07614647 -0.074186124 -0.09348462
-0.09531895 -0.04027378 0.115201786 0.06208243 -0.025199868 0.06602575 0.0038527322 -0.0256937
0.08190574 0.025584277 -0.09260985 -0.024317298 -0.12487264 0.08194534 -0.04401387 0.04746023
-0.020397112 0.15726648 -0.0835353 0.054568816 -0.097364366 -0.020166855 -0.037749197 0.08225267
0.09894127 0.005503764 0.049687043 0.047258 0.029484771 -0.014178223 -0.03588353 -0.03879159
-0.051947862 0.02851149 0.11655845 0.013052739 -0.024680143 0.028214931 0.049785137 -0.0035586995
0.059496358 0.013273691 0.065449275 -0.05509482 0.07577917 -0.06888407 0.0015852278 0.049958166
0.08395228 -0.05678326 0.0766353 0.05393603 0.014577824 -0.008656034 0.04882241 0.037043303
0.009611715 -0.042547002 -0.0589469 0.07292344 0.022354782 -0.032996405 -0.021362972 0.066308446
-0.069990225 -0.0051882393 -0.0057968753 0.04072875 0.02452074 -0.09195723 0.012811357 -0.079176314
-0.01627861 -0.03887443 -0.041163214 0.04773814 -0.034146864 0.07128293 0.09806838 -0.055181
0.014823701 -0.021490814 -0.09442165 -0.040604085 -0.04040663 0.07057331 -0.072555274 0.06787317
0.08167776 -0.04863834 -0.00047153526 0.03303117 -0.0013379488 0.028374495 -0.047496922 0.062109765
-0.035787117 0.03392816 -0.06492783 0.09887343 0.083418556 0.03794055 0.01602609 -0.07112395
-0.082549796 0.03243803 0.052877337 0.043031808 -0.0362045 -0.061479308 0.06520755 0.08100025
-0.011167894 -0.08289895 0.05131357 -0.0030489187 -0.011529352 0.08779994 0.028584925 0.060035553
-0.06434228 0.07375527 -0.08342669 -0.0076485523 -0.08892345 -0.055410936 -0.08470532 -0.070765436
0.018741041 -0.008877291 0.07205108 0.079438806 0.034502205 -0.04863379 0.023239173 0.05370502
-0.06693168 -0.05500087 -0.05671024 0.06285672 0.0058956314 0.017992046 0.075623065 0.06275878
0.059049405 -0.08940264 -0.046036564 -0.024975246 -0.024199199 0.034465663 -0.07317083 0.05198606
0.059191458 -0.050010577 -0.10027457 -0.03297642 -0.012382341 -0.0166215 -0.020779727 -0.06340594
-0.0740022 -0.01876648 0.022685232 0.02312867 -0.01999529 -0.0033387751 0.021069003 -0.046494275
0.054440968 0.059662197 0.10275037 0.014310273 0.08712116 0.042131286 -0.0638547 0.043879513
00000000: 39e2 2c3d 7317 873d f41c c3bd e2e1 46bd
00000010: ed0a 943c f23b a3bd f535 623c d9b2 32bd
00000020: ea10 bcbd b8fd aabd 70fc 703c dd58 df3d
00000030: 14c9 cbb9 39cf 1c3d b58e e7bc 7b81 f5bc
00000040: 6854 5bbd 01a7 da3c e71c aabc 2a28 e5bb
00000050: 5cc1 55bd a2fc f4bd 45a7 843d 44ab 5c3d
00000060: 3303 acbc 15c4 153d c32e 0e3d 639b 863d
00000070: 9a95 8abd 6b58 c63d 9e13 afbd 7aba e4bc
00000080: b7bd 5c3d 4920 e8bc 669d 32bd 8c54 c4bc
00000090: ab35 7ebd 6d52 953c b70a 233d 44bb cebd
000000a0: 89fc a0bd 3df8 20bd e890 b93c f5a9 8f3d
000000b0: 2a1a fcbc 5f74 efbc 3dc6 99bd 1fb8 073e
000000c0: 161e 963b d8d8 863c 065f ef3d a49a 2ebd
000000d0: 3cc7 773c 496e cebd 7039 a0bd 55b9 abbc
000000e0: 0a9a 803d fe22 203c 7ecb 8e3d c180 5cbd
000000f0: 125a 80bd 385d 3e3d f66e 9a3d 53f5 143c
00000100: e840 4dba f29d 9dbd 6f2b 753d 665c 503d
00000110: fe31 b4bc 2ced fc3d 1489 233d bf74 58bd
00000120: 7d30 2b3d fe3c e4bc 322e 6a3d a4f9 90bc
00000130: 889f 073d aef2 9b3d e5ee 97bd dd74 bfbd
00000140: 9536 c3bd 1ef6 24bd eaee eb3d 254a 7e3d
00000150: f46f cebc 8238 873d 1f7e 7c3b 987b d2bc
00000160: 32be a73d 1e96 d13c 3caa bdbd 1235 c7bc
00000170: 3abd ffbd f5d2 a73d e347 34bd a865 423d
00000180: d817 a7bc 770a 213e 8e14 abbd 8d83 5f3d
00000190: f866 c7bd f634 a5bc e79e 1abd 1674 a83d
000001a0: b8a1 ca3d eb58 b43b a484 4b3d 9b91 413d
000001b0: 0c8a f13c c74b 68bc 9cfa 12bd eee3 1ebd
000001c0: 48c7 54bd ee90 e93c 32b6 ee3d 28db 553c
000001d0: 032e cabc 0023 e73c 80eb 4b3d 1239 69bb
000001e0: 74b2 733d e579 593c 450a 863d 1bab 61bd
000001f0: 1c32 9b3d 1713 8dbd 6bc7 cf3a efa0 4c3d
00000200: 2cef ab3d 9095 68bd f8f2 9c3d 07ec 5c3d
00000210: d3d7 6e3c 0ad2 0dbc 02fa 473d b8ba 173d
00000220: 747a 1d3c c445 2ebd 4e72 71bd e258 953d
00000230: 6021 b73c 3d27 07bd 6601 afbc b9cc 873d
00000240: 0957 8fbd 1b02 aabb b7f3 bdbb 31d3 263d
00000250: b8df c83c 1254 bcbd bae6 513c 3127 a2bd
00000260: b85a 85bc cb3a 1fbd c29a 28bd 1189 433d
00000270: 95dd 0bbd c9fc 913d 13d8 c83d 7905 62bd
00000280: 1cdf 723c 810d b0bc 2360 c1bd 7850 26bd
00000290: 6c81 25bd bd88 903d dc97 94bd 1701 8b3d
000002a0: ab46 a73d ff38 47bd 6438 f7b9 b14b 073d
000002b0: 1d5e afba a171 e83c 228c 42bd cf66 7e3d
000002c0: 8395 12bd 41f8 0a3d e2f8 84bd 277e ca3d
000002d0: 59d7 aa3d 8d67 1b3d 2649 833c 6fa9 91bd
000002e0: de0f a9bd bddd 043d e895 583d 1f42 303d
000002f0: 2b4b 14bd bad1 7bbd 898b 853d 76e3 a53d
00000300: 8bf9 36bc edc6 a9bd 2e2e 523d 5ed0 47bb
00000310: 9be5 3cbc 74d0 b33d ef2a ea3c d7e7 753d
00000320: e3c5 83bd 010d 973d 9ddb aabd b5a0 fabb
00000330: 7f1d b6bd 94f6 62bd fc79 adbd 78ed 90bd
00000340: d086 993c 0f72 11bc 848f 933d d0b0 a23d
00000350: 2f52 0d3d 3a34 47bd 1460 be3c ccf9 5b3d
00000360: 7a13 89bd 9848 61bd ff48 68bd 06bb 803d
00000370: 2430 c13b 0e64 933c 44e0 9a3d ad87 803d
00000380: cadd 713d bb18 b7bd d690 3cbd e398 ccbc
00000390: 663d c6bc de2b 0d3d 97da 95bd 56ef 543d
000003a0: be72 723d e4d7 4cbd c15c cdbd 4812 07bd
000003b0: 4ddf 4abc d029 88bc 3f3a aabc f9da 81bd
000003c0: 778e 97bd 29bc 99bc 61d6 b93c 5678 bd3c
000003d0: 2acd a3bc 5acf 5abb e798 ac3c c870 3ebd
000003e0: 7efd 5e3d 5960 743d c96e d23d a375 6a3c
000003f0: 946c b23d db91 2c3d 41c6 82bd 01bb 333d

fc2.bias f4 [84]
-0.015957624 0.093244426 -0.026677888 -0.08707217 0.054285314 0.090597466 0.04485591 -0.004328953
0.042832706 0.22921717 0.053212143 0.41108656 0.06356617 -0.018223545 -0.08131258 -0.075546004
-0.0501527 0.15690604 -0.028154375 -0.19872403 0.7328933 -0.04775858 0.03119892 0.4181459
0.021105053 0.14974569 0.3078252 -0.015917853 -0.019471362 -0.078507215 0.024059935 0.16688344
-0.0038981475 -0.05416358 -0.013327767 0.14048326 0.26910856 -0.07762266 0.06582758 -0.0017138408
-0.017463477 -0.029426131 -0.07933366 -0.0055340575 0.093848675 0.006901705 0.022458006 0.38472855
0.09224448 0.03384461 -0.06675294 0.06739603 -0.08859894 -0.003775774 0.029756261 0.038951375
0.024004022 -0.08464606 0.07824728 0.37557468 0.04846008 0.1361778 0.079016834 0.06869947
0.042124923 -0.013681183 0.1342933 0.03975008 -0.067011274 0.44702667 0.21067938 -0.031439576
0.023941662 0.22766145 -0.09736427 -0.018689262 0.01060377 0.094277546 0.06112387 0.10123329
-0.08976773 0.25737506 0.16705382 -0.0010825517
00000000: 90b9 82bc eff6 be3d 968b dabc e552 b2bd
00000010: 475a 5e3d 2a8b b93d d5ba 373d e4d9 8dbb
00000020: 5971 2f3d e8b7 6a3e faf4 593d f079 d23e
00000030: fb2e 823d 8b49 95bc 3687 a6bd ddb7 9abd
00000040: eb6c 4dbd faab 203e 01a4 e6bc 507e 4bbe
00000050: e59e 3b3f 809e 43bd e194 ff3c 3817 d63e
00000060: 81e4 ac3c ef56 193e 449b 9d3e 2866 82bc
00000070: 6882 9fbc 64c8 a0bd 5719 c53c 7ee3 2a3e
00000080: 1078 7fbb a1da 5dbd b55c 5abc d8da 0f3e
00000090: 99c8 893e a1f8 9ebd 9cd0 863d f4a2 e0ba
000000a0: 910f 8fbc 120f f1bc b079 a2bd 0a57 b5bb
000000b0: bc33 c03d b327 e23b daf9 b73c 24fb c43e
000000c0: adea bc3d a5a0 0a3d c4b5 88bd ee06 8a3d
000000d0: 5c73 b5bd fa72 77bb 67c3 f33c 7a8b 1f3d
000000e0: 15a4 c43c ea5a adbd 1c40 a03d 534b c03e
000000f0: 147e 463d 3172 0b3e 94d3 a13d 4fb2 8c3d
00000100: 2f8b 2c3d 0a27 60bc 2f84 093e fbd0 223d
00000110: 353d 89bd aee0 e43e 56bc 573e c9c6 00bd
00000120: 4e21 c43c 1520 693e eb66 c7bd 391a 99bc
00000130: 6fbb 2d3c 9614 c13d 065d 7a3d 6653 cf3d
00000140: 25d8 b7bd aac6 833e 2810 2b3e 68e4 8dba

fc3.weight f4 [2, 84]
-0.21558377 0.06330736 0.10102659 -0.07193423 0.014143856 -0.2935575 0.054069526 -0.09381942
0.014509329 0.17350887 -0.21228711 0.5488846 -0.32149008 -0.13135263 -0.092010036 -0.004550705
0.123223536 0.3158649 -0.10486765 0.17887582 0.6730807 -0.07957053 0.03332766 0.40981412
-0.13300022 0.20751937 0.42200342 -0.022690944 -0.16961919 0.11475061 -0.26658034 0.26775634
0.04903321 0.00422777 -0.3942248 0.23168102 0.38295627 -0.04717169 -0.52621853 -0.05326168
-0.10305711 -0.047163785 -0.057093076 -0.05393132 0.161128 -0.16931485 0.080174945 0.3138285
0.03415702 -0.057316024 0.14173561 -0.16266339 -0.028559402 -0.17016065 0.050989203 -0.15251523
-0.14271896 0.09036079 -0.20363201 0.36559442 0.12673602 -0.32744294 0.015948052 -0.042766612
-0.28930536 -0.19602682 0.20204426 -0.20040734 0.035349503 0.44488156 0.15738395 -0.116866454
0.022679994 0.22236086 0.065703325 -0.093153656 -0.051248565 -0.32898924 0.003373436 -0.39473334
0.06744411 0.3799616 0.22650099 -0.13028398 0.21416095 -0.045064565 -0.1336731 0.03455144
0.115120314 0.3996842 -0.18858783 -0.067965545 -0.054407883 -0.1890276 0.030178647 -0.56499153
0.18237387 0.30550605 0.09944869 0.10566037 0.041858915 -0.35017464 0.22500767 -0.20010184
-0.68540806 -0.07633162 0.03089448 -0.43101776 0.058932956 -0.044198196 -0.37083665 -0.14083783
0.1690904 -0.063590825 0.20155792 -0.12393922 -0.060900737 -0.06404605 0.3729839 -0.07135229
-0.32628345 0.050279554 0.49445668 -0.050524928 0.19064172 0.061021995 -0.11541387 0.02976426
-0.26867148 0.17271289 0.08474035 -0.2797894 -0.10786353 -0.025089178 -0.0025331776 0.122769095
-0.021050343 0.32083577 0.106541984 0.18279397 0.016125489 -0.063233905 0.13477923 -0.24836089
-0.034405626 0.33767924 0.022938892 -0.0934285 0.35221842 0.051411197 -0.23513515 0.18302692
0.0054478217 -0.3427904 -0.3160698 0.14860341 -0.017096799 -0.18231946 0.100165404 -0.049118135
0.007067072 0.2407316 -0.016711961 0.36563593 -0.070013255 -0.2160814 -0.19068421 0.14359203
00000000: fec1 5cbe 4aa7 813d 07e7 ce3d 4152 93bd
00000010: a2bb 673c 2b4d 96be 0278 5d3d 6524 c0bd
00000020: 89b8 6d3c 4fac 313e cb61 59be b383 0c3f
00000030: 599a a4be 4e81 06be c26f bcbd 151e 95bb
00000040: 9f5c fc3d 0bb9 a13e dac4 d6bd 392b 373e
00000050: 044f 2c3f e0f5 a2bd 9682 083d 28d3 d13e
00000060: 3631 08be f57f 543e d510 d83e 5ce2 b9bc
00000070: a7b0 2dbe 5e02 eb3d 387d 88be 5c17 893e
00000080: 0cd7 483d 1b89 8a3b d5d7 c9be ca3d 6d3e
00000090: d812 c43e 1a37 41bd 42b6 06bf eb28 5abd
000000a0: 9b0f d3bd d02e 41bd 6eda 69bd 16e7 5cbd
000000b0: bdfe 243e df60 2dbe c332 a43d 21ae a03e
000000c0: 3be8 0b3d 35c4 6abd 2423 113e 3b91 26be
000000d0: 68f5 e9bc 983e 2ebe 0eda 503d f42c 1cbe
000000e0: eb24 12be 140f b93d e984 50be 312f bb3e
000000f0: 16c7 013e 9aa6 a7be 7da5 823c 0b2c 2fbd
00000100: d51f 94be 41bb 48be b1e4 4e3e 9537 4dbe
00000110: a4ca 103d 84c7 e33e 4229 213e ae57 efbd
00000120: 65cb b93c 91b2 633e 778f 863d 58c7 bebd
00000130: 04ea 51bd 4771 a8be dd14 5d3b 7d1a cabe
00000140: 2320 8a3d 548a c23e e0ef 673e 2a69 05be
00000150: 024d 5b3e 9f95 38bd 9ae1 08be d085 0d3d
00000160: 33c4 eb3d 68a3 cc3e 2b1d 41be 8531 8bbd
00000170: cdda 5ebd 7490 41be 3639 f73c 49a3 10bf
00000180: 37c0 3a3e 4a6b 9c3e c1ab cb3d 7764 d83d
00000190: 4174 2b3d 174a b3be 6968 663e 7fe7 4cbe
000001a0: e776 2fbf c153 9cbd 6c16 fd3c 5cae dcbe
000001b0: af63 713d 2b09 35bd 4dde bdbe cb37 10be
000001c0: 0926 2d3e e83b 82bd 3365 4e3e d9d3 fdbd
000001d0: 0d73 79bd 932a 83bd bff7 be3e 2621 92bd
000001e0: a00e a7be eff1 4d3d 6d29 fd3e 3af3 4ebd
000001f0: 9537 433e 33f2 793d 1b5e ecbd 2dd4 f33c
00000200: 4f8f 89be a6db 303e 598c ad3d 8e40 8fbe
00000210: 8ee7 dcbd d287 cdbc ab03 26bb 5d6e fb3d
00000220: c571 acbc 9644 a43e af32 da3d 582e 3b3e
00000230: 9a19 843c c780 81bd 9103 0a3e 5152 7ebe
00000240: eaec 0cbd 4be4 ac3e 58ea bb3c 7157 bfbd
00000250: f955 b43e 8c94 523d 45c7 70be 696b 3b3e
00000260: a483 b23b 3982 afbe e7d3 a1be 7e2b 183e
00000270: 960e 8cbc f4b1 3abe 8523 cd3d 1930 49bd
00000280: e692 e73b 5882 763e 86e7 88bc a234 bb3e
00000290: 1c63 8fbd 7144 5dbe b942 43be ca09 133e

fc3.bias f4 [2]
0.22837263 -0.18188895
00000000: 84da 693e 1941 3abe
